program(1.0)
[buildInfo = dict<tensor<string, []>, tensor<string, []>>({{"coremlc-component-MIL", "5.33.5"}, {"coremlc-version", "1877.40.3"}, {"coremltools-component-torch", "2.2.1"}, {"coremltools-source-dialect", "TorchScript"}, {"coremltools-version", "7.1"}})]
{
    func main<ios16>(tensor<fp16, [1, 80, 1, 3000]> melspectrogram_features) {
            tensor<int32, [2]> var_50 = const()[name = tensor<string, []>("op_50"), val = tensor<int32, [2]>([1, 1])];
            tensor<int32, [2]> var_56 = const()[name = tensor<string, []>("op_56"), val = tensor<int32, [2]>([1, 1])];
            tensor<int32, []> var_61 = const()[name = tensor<string, []>("op_61"), val = tensor<int32, []>(1)];
            tensor<string, []> var_66_pad_type_0 = const()[name = tensor<string, []>("op_66_pad_type_0"), val = tensor<string, []>("custom")];
            tensor<int32, [4]> var_66_pad_0 = const()[name = tensor<string, []>("op_66_pad_0"), val = tensor<int32, [4]>([0, 0, 1, 1])];
            tensor<fp16, [768, 80, 1, 3]> var_41_to_fp16 = const()[name = tensor<string, []>("op_41_to_fp16"), val = tensor<fp16, [768, 80, 1, 3]>(BLOBFILE(path = tensor<string, []>("@model_path/weights/weight.bin"), offset = tensor<uint64, []>(64)))];
            tensor<fp16, [768]> var_47_to_fp16 = const()[name = tensor<string, []>("op_47_to_fp16"), val = tensor<fp16, [768]>(BLOBFILE(path = tensor<string, []>("@model_path/weights/weight.bin"), offset = tensor<uint64, []>(368768)))];
            tensor<fp16, [1, 768, 1, 3000]> var_66_cast_fp16 = conv(bias = var_47_to_fp16, dilations = var_56, groups = var_61, pad = var_66_pad_0, pad_type = var_66_pad_type_0, strides = var_50, weight = var_41_to_fp16, x = melspectrogram_features)[name = tensor<string, []>("op_66_cast_fp16")];
            tensor<string, []> hidden_states_1_mode_0 = const()[name = tensor<string, []>("hidden_states_1_mode_0"), val = tensor<string, []>("EXACT")];
            tensor<fp16, [1, 768, 1, 3000]> hidden_states_1_cast_fp16 = gelu(mode = hidden_states_1_mode_0, x = var_66_cast_fp16)[name = tensor<string, []>("hidden_states_1_cast_fp16")];
            tensor<int32, [2]> var_90 = const()[name = tensor<string, []>("op_90"), val = tensor<int32, [2]>([2, 2])];
            tensor<int32, [2]> var_96 = const()[name = tensor<string, []>("op_96"), val = tensor<int32, [2]>([1, 1])];
            tensor<int32, []> var_101 = const()[name = tensor<string, []>("op_101"), val = tensor<int32, []>(1)];
            tensor<string, []> var_106_pad_type_0 = const()[name = tensor<string, []>("op_106_pad_type_0"), val = tensor<string, []>("custom")];
            tensor<int32, [4]> var_106_pad_0 = const()[name = tensor<string, []>("op_106_pad_0"), val = tensor<int32, [4]>([0, 0, 1, 1])];
            tensor<fp16, [768, 768, 1, 3]> var_81_to_fp16 = const()[name = tensor<string, []>("op_81_to_fp16"), val = tensor<fp16, [768, 768, 1, 3]>(BLOBFILE(path = tensor<string, []>("@model_path/weights/weight.bin"), offset = tensor<uint64, []>(370368)))];
            tensor<fp16, [768]> var_87_to_fp16 = const()[name = tensor<string, []>("op_87_to_fp16"), val = tensor<fp16, [768]>(BLOBFILE(path = tensor<string, []>("@model_path/weights/weight.bin"), offset = tensor<uint64, []>(3909376)))];
            tensor<fp16, [1, 768, 1, 1500]> var_106_cast_fp16 = conv(bias = var_87_to_fp16, dilations = var_96, groups = var_101, pad = var_106_pad_0, pad_type = var_106_pad_type_0, strides = var_90, weight = var_81_to_fp16, x = hidden_states_1_cast_fp16)[name = tensor<string, []>("op_106_cast_fp16")];
            tensor<string, []> hidden_states_3_mode_0 = const()[name = tensor<string, []>("hidden_states_3_mode_0"), val = tensor<string, []>("EXACT")];
            tensor<fp16, [1, 768, 1, 1500]> hidden_states_3_cast_fp16 = gelu(mode = hidden_states_3_mode_0, x = var_106_cast_fp16)[name = tensor<string, []>("hidden_states_3_cast_fp16")];
            tensor<fp16, [1, 768, 1, 1500]> var_124_to_fp16 = const()[name = tensor<string, []>("op_124_to_fp16"), val = tensor<fp16, [1, 768, 1, 1500]>(BLOBFILE(path = tensor<string, []>("@model_path/weights/weight.bin"), offset = tensor<uint64, []>(3910976)))];
            tensor<fp16, [1, 768, 1, 1500]> inputs_1_cast_fp16 = add(x = hidden_states_3_cast_fp16, y = var_124_to_fp16)[name = tensor<string, []>("inputs_1_cast_fp16")];
            tensor<int32, []> var_134 = const()[name = tensor<string, []>("op_134"), val = tensor<int32, []>(3)];
            tensor<int32, []> var_151 = const()[name = tensor<string, []>("op_151"), val = tensor<int32, []>(1)];
            tensor<bool, []> var_152 = const()[name = tensor<string, []>("op_152"), val = tensor<bool, []>(true)];
            tensor<int32, [1]> var_162 = const()[name = tensor<string, []>("op_162"), val = tensor<int32, [1]>([1])];
            tensor<fp16, [1, 1, 1, 1500]> channels_mean_1_cast_fp16 = reduce_mean(axes = var_162, keep_dims = var_152, x = inputs_1_cast_fp16)[name = tensor<string, []>("channels_mean_1_cast_fp16")];
            tensor<fp16, [1, 768, 1, 1500]> zero_mean_1_cast_fp16 = sub(x = inputs_1_cast_fp16, y = channels_mean_1_cast_fp16)[name = tensor<string, []>("zero_mean_1_cast_fp16")];
            tensor<fp16, [1, 768, 1, 1500]> zero_mean_sq_1_cast_fp16 = mul(x = zero_mean_1_cast_fp16, y = zero_mean_1_cast_fp16)[name = tensor<string, []>("zero_mean_sq_1_cast_fp16")];
            tensor<int32, [1]> var_166 = const()[name = tensor<string, []>("op_166"), val = tensor<int32, [1]>([1])];
            tensor<fp16, [1, 1, 1, 1500]> var_167_cast_fp16 = reduce_mean(axes = var_166, keep_dims = var_152, x = zero_mean_sq_1_cast_fp16)[name = tensor<string, []>("op_167_cast_fp16")];
            tensor<fp16, []> var_168_to_fp16 = const()[name = tensor<string, []>("op_168_to_fp16"), val = tensor<fp16, []>(0x1.5p-17)];
            tensor<fp16, [1, 1, 1, 1500]> var_169_cast_fp16 = add(x = var_167_cast_fp16, y = var_168_to_fp16)[name = tensor<string, []>("op_169_cast_fp16")];
            tensor<fp16, []> denom_1_epsilon_0_to_fp16 = const()[name = tensor<string, []>("denom_1_epsilon_0_to_fp16"), val = tensor<fp16, []>(0x1p-24)];
            tensor<fp16, [1, 1, 1, 1500]> denom_1_cast_fp16 = rsqrt(epsilon = denom_1_epsilon_0_to_fp16, x = var_169_cast_fp16)[name = tensor<string, []>("denom_1_cast_fp16")];
            tensor<fp16, [1, 768, 1, 1500]> out_1_cast_fp16 = mul(x = zero_mean_1_cast_fp16, y = denom_1_cast_fp16)[name = tensor<string, []>("out_1_cast_fp16")];
            tensor<fp16, [768]> obj_1_mean_0_to_fp16 = const()[name = tensor<string, []>("obj_1_mean_0_to_fp16"), val = tensor<fp16, [768]>(BLOBFILE(path = tensor<string, []>("@model_path/weights/weight.bin"), offset = tensor<uint64, []>(6215040)))];
            tensor<fp16, [768]> obj_1_variance_0_to_fp16 = const()[name = tensor<string, []>("obj_1_variance_0_to_fp16"), val = tensor<fp16, [768]>(BLOBFILE(path = tensor<string, []>("@model_path/weights/weight.bin"), offset = tensor<uint64, []>(6216640)))];
            tensor<fp16, [768]> obj_1_gamma_0_to_fp16 = const()[name = tensor<string, []>("obj_1_gamma_0_to_fp16"), val = tensor<fp16, [768]>(BLOBFILE(path = tensor<string, []>("@model_path/weights/weight.bin"), offset = tensor<uint64, []>(6218240)))];
            tensor<fp16, [768]> obj_1_beta_0_to_fp16 = const()[name = tensor<string, []>("obj_1_beta_0_to_fp16"), val = tensor<fp16, [768]>(BLOBFILE(path = tensor<string, []>("@model_path/weights/weight.bin"), offset = tensor<uint64, []>(6219840)))];
            tensor<fp16, []> obj_1_epsilon_0_to_fp16 = const()[name = tensor<string, []>("obj_1_epsilon_0_to_fp16"), val = tensor<fp16, []>(0x1.5p-17)];
            tensor<fp16, [1, 768, 1, 1500]> obj_1_cast_fp16 = batch_norm(beta = obj_1_beta_0_to_fp16, epsilon = obj_1_epsilon_0_to_fp16, gamma = obj_1_gamma_0_to_fp16, mean = obj_1_mean_0_to_fp16, variance = obj_1_variance_0_to_fp16, x = out_1_cast_fp16)[name = tensor<string, []>("obj_1_cast_fp16")];
            tensor<int32, [2]> var_184 = const()[name = tensor<string, []>("op_184"), val = tensor<int32, [2]>([1, 1])];
            tensor<int32, [2]> var_186 = const()[name = tensor<string, []>("op_186"), val = tensor<int32, [2]>([1, 1])];
            tensor<string, []> query_1_pad_type_0 = const()[name = tensor<string, []>("query_1_pad_type_0"), val = tensor<string, []>("custom")];
            tensor<int32, [4]> query_1_pad_0 = const()[name = tensor<string, []>("query_1_pad_0"), val = tensor<int32, [4]>([0, 0, 0, 0])];
            tensor<fp16, [768, 768, 1, 1]> layers_0_self_attn_q_proj_weight_to_fp16 = const()[name = tensor<string, []>("layers_0_self_attn_q_proj_weight_to_fp16"), val = tensor<fp16, [768, 768, 1, 1]>(BLOBFILE(path = tensor<string, []>("@model_path/weights/weight.bin"), offset = tensor<uint64, []>(6221440)))];
            tensor<fp16, [768]> layers_0_self_attn_q_proj_bias_to_fp16 = const()[name = tensor<string, []>("layers_0_self_attn_q_proj_bias_to_fp16"), val = tensor<fp16, [768]>(BLOBFILE(path = tensor<string, []>("@model_path/weights/weight.bin"), offset = tensor<uint64, []>(7401152)))];
            tensor<fp16, [1, 768, 1, 1500]> query_1_cast_fp16 = conv(bias = layers_0_self_attn_q_proj_bias_to_fp16, dilations = var_186, groups = var_151, pad = query_1_pad_0, pad_type = query_1_pad_type_0, strides = var_184, weight = layers_0_self_attn_q_proj_weight_to_fp16, x = obj_1_cast_fp16)[name = tensor<string, []>("query_1_cast_fp16")];
            tensor<int32, [2]> var_190 = const()[name = tensor<string, []>("op_190"), val = tensor<int32, [2]>([1, 1])];
            tensor<int32, [2]> var_192 = const()[name = tensor<string, []>("op_192"), val = tensor<int32, [2]>([1, 1])];
            tensor<string, []> key_1_pad_type_0 = const()[name = tensor<string, []>("key_1_pad_type_0"), val = tensor<string, []>("custom")];
            tensor<int32, [4]> key_1_pad_0 = const()[name = tensor<string, []>("key_1_pad_0"), val = tensor<int32, [4]>([0, 0, 0, 0])];
            tensor<fp16, [768, 768, 1, 1]> layers_0_self_attn_k_proj_weight_to_fp16 = const()[name = tensor<string, []>("layers_0_self_attn_k_proj_weight_to_fp16"), val = tensor<fp16, [768, 768, 1, 1]>(BLOBFILE(path = tensor<string, []>("@model_path/weights/weight.bin"), offset = tensor<uint64, []>(7402752)))];
            tensor<fp16, [1, 768, 1, 1500]> key_1_cast_fp16 = conv(dilations = var_192, groups = var_151, pad = key_1_pad_0, pad_type = key_1_pad_type_0, strides = var_190, weight = layers_0_self_attn_k_proj_weight_to_fp16, x = obj_1_cast_fp16)[name = tensor<string, []>("key_1_cast_fp16")];
            tensor<int32, [2]> var_197 = const()[name = tensor<string, []>("op_197"), val = tensor<int32, [2]>([1, 1])];
            tensor<int32, [2]> var_199 = const()[name = tensor<string, []>("op_199"), val = tensor<int32, [2]>([1, 1])];
            tensor<string, []> value_1_pad_type_0 = const()[name = tensor<string, []>("value_1_pad_type_0"), val = tensor<string, []>("custom")];
            tensor<int32, [4]> value_1_pad_0 = const()[name = tensor<string, []>("value_1_pad_0"), val = tensor<int32, [4]>([0, 0, 0, 0])];
            tensor<fp16, [768, 768, 1, 1]> layers_0_self_attn_v_proj_weight_to_fp16 = const()[name = tensor<string, []>("layers_0_self_attn_v_proj_weight_to_fp16"), val = tensor<fp16, [768, 768, 1, 1]>(BLOBFILE(path = tensor<string, []>("@model_path/weights/weight.bin"), offset = tensor<uint64, []>(8582464)))];
            tensor<fp16, [768]> layers_0_self_attn_v_proj_bias_to_fp16 = const()[name = tensor<string, []>("layers_0_self_attn_v_proj_bias_to_fp16"), val = tensor<fp16, [768]>(BLOBFILE(path = tensor<string, []>("@model_path/weights/weight.bin"), offset = tensor<uint64, []>(9762176)))];
            tensor<fp16, [1, 768, 1, 1500]> value_1_cast_fp16 = conv(bias = layers_0_self_attn_v_proj_bias_to_fp16, dilations = var_199, groups = var_151, pad = value_1_pad_0, pad_type = value_1_pad_type_0, strides = var_197, weight = layers_0_self_attn_v_proj_weight_to_fp16, x = obj_1_cast_fp16)[name = tensor<string, []>("value_1_cast_fp16")];
            tensor<int32, [4]> var_206_begin_0 = const()[name = tensor<string, []>("op_206_begin_0"), val = tensor<int32, [4]>([0, 0, 0, 0])];
            tensor<int32, [4]> var_206_end_0 = const()[name = tensor<string, []>("op_206_end_0"), val = tensor<int32, [4]>([1, 64, 1, 1500])];
            tensor<bool, [4]> var_206_end_mask_0 = const()[name = tensor<string, []>("op_206_end_mask_0"), val = tensor<bool, [4]>([true, false, true, true])];
            tensor<fp16, [1, 64, 1, 1500]> var_206_cast_fp16 = slice_by_index(begin = var_206_begin_0, end = var_206_end_0, end_mask = var_206_end_mask_0, x = query_1_cast_fp16)[name = tensor<string, []>("op_206_cast_fp16")];
            tensor<int32, [4]> var_210_begin_0 = const()[name = tensor<string, []>("op_210_begin_0"), val = tensor<int32, [4]>([0, 64, 0, 0])];
            tensor<int32, [4]> var_210_end_0 = const()[name = tensor<string, []>("op_210_end_0"), val = tensor<int32, [4]>([1, 128, 1, 1500])];
            tensor<bool, [4]> var_210_end_mask_0 = const()[name = tensor<string, []>("op_210_end_mask_0"), val = tensor<bool, [4]>([true, false, true, true])];
            tensor<fp16, [1, 64, 1, 1500]> var_210_cast_fp16 = slice_by_index(begin = var_210_begin_0, end = var_210_end_0, end_mask = var_210_end_mask_0, x = query_1_cast_fp16)[name = tensor<string, []>("op_210_cast_fp16")];
            tensor<int32, [4]> var_214_begin_0 = const()[name = tensor<string, []>("op_214_begin_0"), val = tensor<int32, [4]>([0, 128, 0, 0])];
            tensor<int32, [4]> var_214_end_0 = const()[name = tensor<string, []>("op_214_end_0"), val = tensor<int32, [4]>([1, 192, 1, 1500])];
            tensor<bool, [4]> var_214_end_mask_0 = const()[name = tensor<string, []>("op_214_end_mask_0"), val = tensor<bool, [4]>([true, false, true, true])];
            tensor<fp16, [1, 64, 1, 1500]> var_214_cast_fp16 = slice_by_index(begin = var_214_begin_0, end = var_214_end_0, end_mask = var_214_end_mask_0, x = query_1_cast_fp16)[name = tensor<string, []>("op_214_cast_fp16")];
            tensor<int32, [4]> var_218_begin_0 = const()[name = tensor<string, []>("op_218_begin_0"), val = tensor<int32, [4]>([0, 192, 0, 0])];
            tensor<int32, [4]> var_218_end_0 = const()[name = tensor<string, []>("op_218_end_0"), val = tensor<int32, [4]>([1, 256, 1, 1500])];
            tensor<bool, [4]> var_218_end_mask_0 = const()[name = tensor<string, []>("op_218_end_mask_0"), val = tensor<bool, [4]>([true, false, true, true])];
            tensor<fp16, [1, 64, 1, 1500]> var_218_cast_fp16 = slice_by_index(begin = var_218_begin_0, end = var_218_end_0, end_mask = var_218_end_mask_0, x = query_1_cast_fp16)[name = tensor<string, []>("op_218_cast_fp16")];
            tensor<int32, [4]> var_222_begin_0 = const()[name = tensor<string, []>("op_222_begin_0"), val = tensor<int32, [4]>([0, 256, 0, 0])];
            tensor<int32, [4]> var_222_end_0 = const()[name = tensor<string, []>("op_222_end_0"), val = tensor<int32, [4]>([1, 320, 1, 1500])];
            tensor<bool, [4]> var_222_end_mask_0 = const()[name = tensor<string, []>("op_222_end_mask_0"), val = tensor<bool, [4]>([true, false, true, true])];
            tensor<fp16, [1, 64, 1, 1500]> var_222_cast_fp16 = slice_by_index(begin = var_222_begin_0, end = var_222_end_0, end_mask = var_222_end_mask_0, x = query_1_cast_fp16)[name = tensor<string, []>("op_222_cast_fp16")];
            tensor<int32, [4]> var_226_begin_0 = const()[name = tensor<string, []>("op_226_begin_0"), val = tensor<int32, [4]>([0, 320, 0, 0])];
            tensor<int32, [4]> var_226_end_0 = const()[name = tensor<string, []>("op_226_end_0"), val = tensor<int32, [4]>([1, 384, 1, 1500])];
            tensor<bool, [4]> var_226_end_mask_0 = const()[name = tensor<string, []>("op_226_end_mask_0"), val = tensor<bool, [4]>([true, false, true, true])];
            tensor<fp16, [1, 64, 1, 1500]> var_226_cast_fp16 = slice_by_index(begin = var_226_begin_0, end = var_226_end_0, end_mask = var_226_end_mask_0, x = query_1_cast_fp16)[name = tensor<string, []>("op_226_cast_fp16")];
            tensor<int32, [4]> var_230_begin_0 = const()[name = tensor<string, []>("op_230_begin_0"), val = tensor<int32, [4]>([0, 384, 0, 0])];
            tensor<int32, [4]> var_230_end_0 = const()[name = tensor<string, []>("op_230_end_0"), val = tensor<int32, [4]>([1, 448, 1, 1500])];
            tensor<bool, [4]> var_230_end_mask_0 = const()[name = tensor<string, []>("op_230_end_mask_0"), val = tensor<bool, [4]>([true, false, true, true])];
            tensor<fp16, [1, 64, 1, 1500]> var_230_cast_fp16 = slice_by_index(begin = var_230_begin_0, end = var_230_end_0, end_mask = var_230_end_mask_0, x = query_1_cast_fp16)[name = tensor<string, []>("op_230_cast_fp16")];
            tensor<int32, [4]> var_234_begin_0 = const()[name = tensor<string, []>("op_234_begin_0"), val = tensor<int32, [4]>([0, 448, 0, 0])];
            tensor<int32, [4]> var_234_end_0 = const()[name = tensor<string, []>("op_234_end_0"), val = tensor<int32, [4]>([1, 512, 1, 1500])];
            tensor<bool, [4]> var_234_end_mask_0 = const()[name = tensor<string, []>("op_234_end_mask_0"), val = tensor<bool, [4]>([true, false, true, true])];
            tensor<fp16, [1, 64, 1, 1500]> var_234_cast_fp16 = slice_by_index(begin = var_234_begin_0, end = var_234_end_0, end_mask = var_234_end_mask_0, x = query_1_cast_fp16)[name = tensor<string, []>("op_234_cast_fp16")];
            tensor<int32, [4]> var_238_begin_0 = const()[name = tensor<string, []>("op_238_begin_0"), val = tensor<int32, [4]>([0, 512, 0, 0])];
            tensor<int32, [4]> var_238_end_0 = const()[name = tensor<string, []>("op_238_end_0"), val = tensor<int32, [4]>([1, 576, 1, 1500])];
            tensor<bool, [4]> var_238_end_mask_0 = const()[name = tensor<string, []>("op_238_end_mask_0"), val = tensor<bool, [4]>([true, false, true, true])];
            tensor<fp16, [1, 64, 1, 1500]> var_238_cast_fp16 = slice_by_index(begin = var_238_begin_0, end = var_238_end_0, end_mask = var_238_end_mask_0, x = query_1_cast_fp16)[name = tensor<string, []>("op_238_cast_fp16")];
            tensor<int32, [4]> var_242_begin_0 = const()[name = tensor<string, []>("op_242_begin_0"), val = tensor<int32, [4]>([0, 576, 0, 0])];
            tensor<int32, [4]> var_242_end_0 = const()[name = tensor<string, []>("op_242_end_0"), val = tensor<int32, [4]>([1, 640, 1, 1500])];
            tensor<bool, [4]> var_242_end_mask_0 = const()[name = tensor<string, []>("op_242_end_mask_0"), val = tensor<bool, [4]>([true, false, true, true])];
            tensor<fp16, [1, 64, 1, 1500]> var_242_cast_fp16 = slice_by_index(begin = var_242_begin_0, end = var_242_end_0, end_mask = var_242_end_mask_0, x = query_1_cast_fp16)[name = tensor<string, []>("op_242_cast_fp16")];
            tensor<int32, [4]> var_246_begin_0 = const()[name = tensor<string, []>("op_246_begin_0"), val = tensor<int32, [4]>([0, 640, 0, 0])];
            tensor<int32, [4]> var_246_end_0 = const()[name = tensor<string, []>("op_246_end_0"), val = tensor<int32, [4]>([1, 704, 1, 1500])];
            tensor<bool, [4]> var_246_end_mask_0 = const()[name = tensor<string, []>("op_246_end_mask_0"), val = tensor<bool, [4]>([true, false, true, true])];
            tensor<fp16, [1, 64, 1, 1500]> var_246_cast_fp16 = slice_by_index(begin = var_246_begin_0, end = var_246_end_0, end_mask = var_246_end_mask_0, x = query_1_cast_fp16)[name = tensor<string, []>("op_246_cast_fp16")];
            tensor<int32, [4]> var_250_begin_0 = const()[name = tensor<string, []>("op_250_begin_0"), val = tensor<int32, [4]>([0, 704, 0, 0])];
            tensor<int32, [4]> var_250_end_0 = const()[name = tensor<string, []>("op_250_end_0"), val = tensor<int32, [4]>([1, 768, 1, 1500])];
            tensor<bool, [4]> var_250_end_mask_0 = const()[name = tensor<string, []>("op_250_end_mask_0"), val = tensor<bool, [4]>([true, false, true, true])];
            tensor<fp16, [1, 64, 1, 1500]> var_250_cast_fp16 = slice_by_index(begin = var_250_begin_0, end = var_250_end_0, end_mask = var_250_end_mask_0, x = query_1_cast_fp16)[name = tensor<string, []>("op_250_cast_fp16")];
            tensor<int32, [4]> var_259_begin_0 = const()[name = tensor<string, []>("op_259_begin_0"), val = tensor<int32, [4]>([0, 0, 0, 0])];
            tensor<int32, [4]> var_259_end_0 = const()[name = tensor<string, []>("op_259_end_0"), val = tensor<int32, [4]>([1, 64, 1, 375])];
            tensor<bool, [4]> var_259_end_mask_0 = const()[name = tensor<string, []>("op_259_end_mask_0"), val = tensor<bool, [4]>([true, true, true, false])];
            tensor<fp16, [1, 64, 1, 375]> var_259_cast_fp16 = slice_by_index(begin = var_259_begin_0, end = var_259_end_0, end_mask = var_259_end_mask_0, x = var_206_cast_fp16)[name = tensor<string, []>("op_259_cast_fp16")];
            tensor<int32, [4]> var_266_begin_0 = const()[name = tensor<string, []>("op_266_begin_0"), val = tensor<int32, [4]>([0, 0, 0, 375])];
            tensor<int32, [4]> var_266_end_0 = const()[name = tensor<string, []>("op_266_end_0"), val = tensor<int32, [4]>([1, 64, 1, 750])];
            tensor<bool, [4]> var_266_end_mask_0 = const()[name = tensor<string, []>("op_266_end_mask_0"), val = tensor<bool, [4]>([true, true, true, false])];
            tensor<fp16, [1, 64, 1, 375]> var_266_cast_fp16 = slice_by_index(begin = var_266_begin_0, end = var_266_end_0, end_mask = var_266_end_mask_0, x = var_206_cast_fp16)[name = tensor<string, []>("op_266_cast_fp16")];
            tensor<int32, [4]> var_273_begin_0 = const()[name = tensor<string, []>("op_273_begin_0"), val = tensor<int32, [4]>([0, 0, 0, 750])];
            tensor<int32, [4]> var_273_end_0 = const()[name = tensor<string, []>("op_273_end_0"), val = tensor<int32, [4]>([1, 64, 1, 1125])];
            tensor<bool, [4]> var_273_end_mask_0 = const()[name = tensor<string, []>("op_273_end_mask_0"), val = tensor<bool, [4]>([true, true, true, false])];
            tensor<fp16, [1, 64, 1, 375]> var_273_cast_fp16 = slice_by_index(begin = var_273_begin_0, end = var_273_end_0, end_mask = var_273_end_mask_0, x = var_206_cast_fp16)[name = tensor<string, []>("op_273_cast_fp16")];
            tensor<int32, [4]> var_280_begin_0 = const()[name = tensor<string, []>("op_280_begin_0"), val = tensor<int32, [4]>([0, 0, 0, 1125])];
            tensor<int32, [4]> var_280_end_0 = const()[name = tensor<string, []>("op_280_end_0"), val = tensor<int32, [4]>([1, 64, 1, 1500])];
            tensor<bool, [4]> var_280_end_mask_0 = const()[name = tensor<string, []>("op_280_end_mask_0"), val = tensor<bool, [4]>([true, true, true, false])];
            tensor<fp16, [1, 64, 1, 375]> var_280_cast_fp16 = slice_by_index(begin = var_280_begin_0, end = var_280_end_0, end_mask = var_280_end_mask_0, x = var_206_cast_fp16)[name = tensor<string, []>("op_280_cast_fp16")];
            tensor<int32, [4]> var_287_begin_0 = const()[name = tensor<string, []>("op_287_begin_0"), val = tensor<int32, [4]>([0, 0, 0, 0])];
            tensor<int32, [4]> var_287_end_0 = const()[name = tensor<string, []>("op_287_end_0"), val = tensor<int32, [4]>([1, 64, 1, 375])];
            tensor<bool, [4]> var_287_end_mask_0 = const()[name = tensor<string, []>("op_287_end_mask_0"), val = tensor<bool, [4]>([true, true, true, false])];
            tensor<fp16, [1, 64, 1, 375]> var_287_cast_fp16 = slice_by_index(begin = var_287_begin_0, end = var_287_end_0, end_mask = var_287_end_mask_0, x = var_210_cast_fp16)[name = tensor<string, []>("op_287_cast_fp16")];
            tensor<int32, [4]> var_294_begin_0 = const()[name = tensor<string, []>("op_294_begin_0"), val = tensor<int32, [4]>([0, 0, 0, 375])];
            tensor<int32, [4]> var_294_end_0 = const()[name = tensor<string, []>("op_294_end_0"), val = tensor<int32, [4]>([1, 64, 1, 750])];
            tensor<bool, [4]> var_294_end_mask_0 = const()[name = tensor<string, []>("op_294_end_mask_0"), val = tensor<bool, [4]>([true, true, true, false])];
            tensor<fp16, [1, 64, 1, 375]> var_294_cast_fp16 = slice_by_index(begin = var_294_begin_0, end = var_294_end_0, end_mask = var_294_end_mask_0, x = var_210_cast_fp16)[name = tensor<string, []>("op_294_cast_fp16")];
            tensor<int32, [4]> var_301_begin_0 = const()[name = tensor<string, []>("op_301_begin_0"), val = tensor<int32, [4]>([0, 0, 0, 750])];
            tensor<int32, [4]> var_301_end_0 = const()[name = tensor<string, []>("op_301_end_0"), val = tensor<int32, [4]>([1, 64, 1, 1125])];
            tensor<bool, [4]> var_301_end_mask_0 = const()[name = tensor<string, []>("op_301_end_mask_0"), val = tensor<bool, [4]>([true, true, true, false])];
            tensor<fp16, [1, 64, 1, 375]> var_301_cast_fp16 = slice_by_index(begin = var_301_begin_0, end = var_301_end_0, end_mask = var_301_end_mask_0, x = var_210_cast_fp16)[name = tensor<string, []>("op_301_cast_fp16")];
            tensor<int32, [4]> var_308_begin_0 = const()[name = tensor<string, []>("op_308_begin_0"), val = tensor<int32, [4]>([0, 0, 0, 1125])];
            tensor<int32, [4]> var_308_end_0 = const()[name = tensor<string, []>("op_308_end_0"), val = tensor<int32, [4]>([1, 64, 1, 1500])];
            tensor<bool, [4]> var_308_end_mask_0 = const()[name = tensor<string, []>("op_308_end_mask_0"), val = tensor<bool, [4]>([true, true, true, false])];
            tensor<fp16, [1, 64, 1, 375]> var_308_cast_fp16 = slice_by_index(begin = var_308_begin_0, end = var_308_end_0, end_mask = var_308_end_mask_0, x = var_210_cast_fp16)[name = tensor<string, []>("op_308_cast_fp16")];
            tensor<int32, [4]> var_315_begin_0 = const()[name = tensor<string, []>("op_315_begin_0"), val = tensor<int32, [4]>([0, 0, 0, 0])];
            tensor<int32, [4]> var_315_end_0 = const()[name = tensor<string, []>("op_315_end_0"), val = tensor<int32, [4]>([1, 64, 1, 375])];
            tensor<bool, [4]> var_315_end_mask_0 = const()[name = tensor<string, []>("op_315_end_mask_0"), val = tensor<bool, [4]>([true, true, true, false])];
            tensor<fp16, [1, 64, 1, 375]> var_315_cast_fp16 = slice_by_index(begin = var_315_begin_0, end = var_315_end_0, end_mask = var_315_end_mask_0, x = var_214_cast_fp16)[name = tensor<string, []>("op_315_cast_fp16")];
            tensor<int32, [4]> var_322_begin_0 = const()[name = tensor<string, []>("op_322_begin_0"), val = tensor<int32, [4]>([0, 0, 0, 375])];
            tensor<int32, [4]> var_322_end_0 = const()[name = tensor<string, []>("op_322_end_0"), val = tensor<int32, [4]>([1, 64, 1, 750])];
            tensor<bool, [4]> var_322_end_mask_0 = const()[name = tensor<string, []>("op_322_end_mask_0"), val = tensor<bool, [4]>([true, true, true, false])];
            tensor<fp16, [1, 64, 1, 375]> var_322_cast_fp16 = slice_by_index(begin = var_322_begin_0, end = var_322_end_0, end_mask = var_322_end_mask_0, x = var_214_cast_fp16)[name = tensor<string, []>("op_322_cast_fp16")];
            tensor<int32, [4]> var_329_begin_0 = const()[name = tensor<string, []>("op_329_begin_0"), val = tensor<int32, [4]>([0, 0, 0, 750])];
            tensor<int32, [4]> var_329_end_0 = const()[name = tensor<string, []>("op_329_end_0"), val = tensor<int32, [4]>([1, 64, 1, 1125])];
            tensor<bool, [4]> var_329_end_mask_0 = const()[name = tensor<string, []>("op_329_end_mask_0"), val = tensor<bool, [4]>([true, true, true, false])];
            tensor<fp16, [1, 64, 1, 375]> var_329_cast_fp16 = slice_by_index(begin = var_329_begin_0, end = var_329_end_0, end_mask = var_329_end_mask_0, x = var_214_cast_fp16)[name = tensor<string, []>("op_329_cast_fp16")];
            tensor<int32, [4]> var_336_begin_0 = const()[name = tensor<string, []>("op_336_begin_0"), val = tensor<int32, [4]>([0, 0, 0, 1125])];
            tensor<int32, [4]> var_336_end_0 = const()[name = tensor<string, []>("op_336_end_0"), val = tensor<int32, [4]>([1, 64, 1, 1500])];
            tensor<bool, [4]> var_336_end_mask_0 = const()[name = tensor<string, []>("op_336_end_mask_0"), val = tensor<bool, [4]>([true, true, true, false])];
            tensor<fp16, [1, 64, 1, 375]> var_336_cast_fp16 = slice_by_index(begin = var_336_begin_0, end = var_336_end_0, end_mask = var_336_end_mask_0, x = var_214_cast_fp16)[name = tensor<string, []>("op_336_cast_fp16")];
            tensor<int32, [4]> var_343_begin_0 = const()[name = tensor<string, []>("op_343_begin_0"), val = tensor<int32, [4]>([0, 0, 0, 0])];
            tensor<int32, [4]> var_343_end_0 = const()[name = tensor<string, []>("op_343_end_0"), val = tensor<int32, [4]>([1, 64, 1, 375])];
            tensor<bool, [4]> var_343_end_mask_0 = const()[name = tensor<string, []>("op_343_end_mask_0"), val = tensor<bool, [4]>([true, true, true, false])];
            tensor<fp16, [1, 64, 1, 375]> var_343_cast_fp16 = slice_by_index(begin = var_343_begin_0, end = var_343_end_0, end_mask = var_343_end_mask_0, x = var_218_cast_fp16)[name = tensor<string, []>("op_343_cast_fp16")];
            tensor<int32, [4]> var_350_begin_0 = const()[name = tensor<string, []>("op_350_begin_0"), val = tensor<int32, [4]>([0, 0, 0, 375])];
            tensor<int32, [4]> var_350_end_0 = const()[name = tensor<string, []>("op_350_end_0"), val = tensor<int32, [4]>([1, 64, 1, 750])];
            tensor<bool, [4]> var_350_end_mask_0 = const()[name = tensor<string, []>("op_350_end_mask_0"), val = tensor<bool, [4]>([true, true, true, false])];
            tensor<fp16, [1, 64, 1, 375]> var_350_cast_fp16 = slice_by_index(begin = var_350_begin_0, end = var_350_end_0, end_mask = var_350_end_mask_0, x = var_218_cast_fp16)[name = tensor<string, []>("op_350_cast_fp16")];
            tensor<int32, [4]> var_357_begin_0 = const()[name = tensor<string, []>("op_357_begin_0"), val = tensor<int32, [4]>([0, 0, 0, 750])];
            tensor<int32, [4]> var_357_end_0 = const()[name = tensor<string, []>("op_357_end_0"), val = tensor<int32, [4]>([1, 64, 1, 1125])];
            tensor<bool, [4]> var_357_end_mask_0 = const()[name = tensor<string, []>("op_357_end_mask_0"), val = tensor<bool, [4]>([true, true, true, false])];
            tensor<fp16, [1, 64, 1, 375]> var_357_cast_fp16 = slice_by_index(begin = var_357_begin_0, end = var_357_end_0, end_mask = var_357_end_mask_0, x = var_218_cast_fp16)[name = tensor<string, []>("op_357_cast_fp16")];
            tensor<int32, [4]> var_364_begin_0 = const()[name = tensor<string, []>("op_364_begin_0"), val = tensor<int32, [4]>([0, 0, 0, 1125])];
            tensor<int32, [4]> var_364_end_0 = const()[name = tensor<string, []>("op_364_end_0"), val = tensor<int32, [4]>([1, 64, 1, 1500])];
            tensor<bool, [4]> var_364_end_mask_0 = const()[name = tensor<string, []>("op_364_end_mask_0"), val = tensor<bool, [4]>([true, true, true, false])];
            tensor<fp16, [1, 64, 1, 375]> var_364_cast_fp16 = slice_by_index(begin = var_364_begin_0, end = var_364_end_0, end_mask = var_364_end_mask_0, x = var_218_cast_fp16)[name = tensor<string, []>("op_364_cast_fp16")];
            tensor<int32, [4]> var_371_begin_0 = const()[name = tensor<string, []>("op_371_begin_0"), val = tensor<int32, [4]>([0, 0, 0, 0])];
            tensor<int32, [4]> var_371_end_0 = const()[name = tensor<string, []>("op_371_end_0"), val = tensor<int32, [4]>([1, 64, 1, 375])];
            tensor<bool, [4]> var_371_end_mask_0 = const()[name = tensor<string, []>("op_371_end_mask_0"), val = tensor<bool, [4]>([true, true, true, false])];
            tensor<fp16, [1, 64, 1, 375]> var_371_cast_fp16 = slice_by_index(begin = var_371_begin_0, end = var_371_end_0, end_mask = var_371_end_mask_0, x = var_222_cast_fp16)[name = tensor<string, []>("op_371_cast_fp16")];
            tensor<int32, [4]> var_378_begin_0 = const()[name = tensor<string, []>("op_378_begin_0"), val = tensor<int32, [4]>([0, 0, 0, 375])];
            tensor<int32, [4]> var_378_end_0 = const()[name = tensor<string, []>("op_378_end_0"), val = tensor<int32, [4]>([1, 64, 1, 750])];
            tensor<bool, [4]> var_378_end_mask_0 = const()[name = tensor<string, []>("op_378_end_mask_0"), val = tensor<bool, [4]>([true, true, true, false])];
            tensor<fp16, [1, 64, 1, 375]> var_378_cast_fp16 = slice_by_index(begin = var_378_begin_0, end = var_378_end_0, end_mask = var_378_end_mask_0, x = var_222_cast_fp16)[name = tensor<string, []>("op_378_cast_fp16")];
            tensor<int32, [4]> var_385_begin_0 = const()[name = tensor<string, []>("op_385_begin_0"), val = tensor<int32, [4]>([0, 0, 0, 750])];
            tensor<int32, [4]> var_385_end_0 = const()[name = tensor<string, []>("op_385_end_0"), val = tensor<int32, [4]>([1, 64, 1, 1125])];
            tensor<bool, [4]> var_385_end_mask_0 = const()[name = tensor<string, []>("op_385_end_mask_0"), val = tensor<bool, [4]>([true, true, true, false])];
            tensor<fp16, [1, 64, 1, 375]> var_385_cast_fp16 = slice_by_index(begin = var_385_begin_0, end = var_385_end_0, end_mask = var_385_end_mask_0, x = var_222_cast_fp16)[name = tensor<string, []>("op_385_cast_fp16")];
            tensor<int32, [4]> var_392_begin_0 = const()[name = tensor<string, []>("op_392_begin_0"), val = tensor<int32, [4]>([0, 0, 0, 1125])];
            tensor<int32, [4]> var_392_end_0 = const()[name = tensor<string, []>("op_392_end_0"), val = tensor<int32, [4]>([1, 64, 1, 1500])];
            tensor<bool, [4]> var_392_end_mask_0 = const()[name = tensor<string, []>("op_392_end_mask_0"), val = tensor<bool, [4]>([true, true, true, false])];
            tensor<fp16, [1, 64, 1, 375]> var_392_cast_fp16 = slice_by_index(begin = var_392_begin_0, end = var_392_end_0, end_mask = var_392_end_mask_0, x = var_222_cast_fp16)[name = tensor<string, []>("op_392_cast_fp16")];
            tensor<int32, [4]> var_399_begin_0 = const()[name = tensor<string, []>("op_399_begin_0"), val = tensor<int32, [4]>([0, 0, 0, 0])];
            tensor<int32, [4]> var_399_end_0 = const()[name = tensor<string, []>("op_399_end_0"), val = tensor<int32, [4]>([1, 64, 1, 375])];
            tensor<bool, [4]> var_399_end_mask_0 = const()[name = tensor<string, []>("op_399_end_mask_0"), val = tensor<bool, [4]>([true, true, true, false])];
            tensor<fp16, [1, 64, 1, 375]> var_399_cast_fp16 = slice_by_index(begin = var_399_begin_0, end = var_399_end_0, end_mask = var_399_end_mask_0, x = var_226_cast_fp16)[name = tensor<string, []>("op_399_cast_fp16")];
            tensor<int32, [4]> var_406_begin_0 = const()[name = tensor<string, []>("op_406_begin_0"), val = tensor<int32, [4]>([0, 0, 0, 375])];
            tensor<int32, [4]> var_406_end_0 = const()[name = tensor<string, []>("op_406_end_0"), val = tensor<int32, [4]>([1, 64, 1, 750])];
            tensor<bool, [4]> var_406_end_mask_0 = const()[name = tensor<string, []>("op_406_end_mask_0"), val = tensor<bool, [4]>([true, true, true, false])];
            tensor<fp16, [1, 64, 1, 375]> var_406_cast_fp16 = slice_by_index(begin = var_406_begin_0, end = var_406_end_0, end_mask = var_406_end_mask_0, x = var_226_cast_fp16)[name = tensor<string, []>("op_406_cast_fp16")];
            tensor<int32, [4]> var_413_begin_0 = const()[name = tensor<string, []>("op_413_begin_0"), val = tensor<int32, [4]>([0, 0, 0, 750])];
            tensor<int32, [4]> var_413_end_0 = const()[name = tensor<string, []>("op_413_end_0"), val = tensor<int32, [4]>([1, 64, 1, 1125])];
            tensor<bool, [4]> var_413_end_mask_0 = const()[name = tensor<string, []>("op_413_end_mask_0"), val = tensor<bool, [4]>([true, true, true, false])];
            tensor<fp16, [1, 64, 1, 375]> var_413_cast_fp16 = slice_by_index(begin = var_413_begin_0, end = var_413_end_0, end_mask = var_413_end_mask_0, x = var_226_cast_fp16)[name = tensor<string, []>("op_413_cast_fp16")];
            tensor<int32, [4]> var_420_begin_0 = const()[name = tensor<string, []>("op_420_begin_0"), val = tensor<int32, [4]>([0, 0, 0, 1125])];
            tensor<int32, [4]> var_420_end_0 = const()[name = tensor<string, []>("op_420_end_0"), val = tensor<int32, [4]>([1, 64, 1, 1500])];
            tensor<bool, [4]> var_420_end_mask_0 = const()[name = tensor<string, []>("op_420_end_mask_0"), val = tensor<bool, [4]>([true, true, true, false])];
            tensor<fp16, [1, 64, 1, 375]> var_420_cast_fp16 = slice_by_index(begin = var_420_begin_0, end = var_420_end_0, end_mask = var_420_end_mask_0, x = var_226_cast_fp16)[name = tensor<string, []>("op_420_cast_fp16")];
            tensor<int32, [4]> var_427_begin_0 = const()[name = tensor<string, []>("op_427_begin_0"), val = tensor<int32, [4]>([0, 0, 0, 0])];
            tensor<int32, [4]> var_427_end_0 = const()[name = tensor<string, []>("op_427_end_0"), val = tensor<int32, [4]>([1, 64, 1, 375])];
            tensor<bool, [4]> var_427_end_mask_0 = const()[name = tensor<string, []>("op_427_end_mask_0"), val = tensor<bool, [4]>([true, true, true, false])];
            tensor<fp16, [1, 64, 1, 375]> var_427_cast_fp16 = slice_by_index(begin = var_427_begin_0, end = var_427_end_0, end_mask = var_427_end_mask_0, x = var_230_cast_fp16)[name = tensor<string, []>("op_427_cast_fp16")];
            tensor<int32, [4]> var_434_begin_0 = const()[name = tensor<string, []>("op_434_begin_0"), val = tensor<int32, [4]>([0, 0, 0, 375])];
            tensor<int32, [4]> var_434_end_0 = const()[name = tensor<string, []>("op_434_end_0"), val = tensor<int32, [4]>([1, 64, 1, 750])];
            tensor<bool, [4]> var_434_end_mask_0 = const()[name = tensor<string, []>("op_434_end_mask_0"), val = tensor<bool, [4]>([true, true, true, false])];
            tensor<fp16, [1, 64, 1, 375]> var_434_cast_fp16 = slice_by_index(begin = var_434_begin_0, end = var_434_end_0, end_mask = var_434_end_mask_0, x = var_230_cast_fp16)[name = tensor<string, []>("op_434_cast_fp16")];
            tensor<int32, [4]> var_441_begin_0 = const()[name = tensor<string, []>("op_441_begin_0"), val = tensor<int32, [4]>([0, 0, 0, 750])];
            tensor<int32, [4]> var_441_end_0 = const()[name = tensor<string, []>("op_441_end_0"), val = tensor<int32, [4]>([1, 64, 1, 1125])];
            tensor<bool, [4]> var_441_end_mask_0 = const()[name = tensor<string, []>("op_441_end_mask_0"), val = tensor<bool, [4]>([true, true, true, false])];
            tensor<fp16, [1, 64, 1, 375]> var_441_cast_fp16 = slice_by_index(begin = var_441_begin_0, end = var_441_end_0, end_mask = var_441_end_mask_0, x = var_230_cast_fp16)[name = tensor<string, []>("op_441_cast_fp16")];
            tensor<int32, [4]> var_448_begin_0 = const()[name = tensor<string, []>("op_448_begin_0"), val = tensor<int32, [4]>([0, 0, 0, 1125])];
            tensor<int32, [4]> var_448_end_0 = const()[name = tensor<string, []>("op_448_end_0"), val = tensor<int32, [4]>([1, 64, 1, 1500])];
            tensor<bool, [4]> var_448_end_mask_0 = const()[name = tensor<string, []>("op_448_end_mask_0"), val = tensor<bool, [4]>([true, true, true, false])];
            tensor<fp16, [1, 64, 1, 375]> var_448_cast_fp16 = slice_by_index(begin = var_448_begin_0, end = var_448_end_0, end_mask = var_448_end_mask_0, x = var_230_cast_fp16)[name = tensor<string, []>("op_448_cast_fp16")];
            tensor<int32, [4]> var_455_begin_0 = const()[name = tensor<string, []>("op_455_begin_0"), val = tensor<int32, [4]>([0, 0, 0, 0])];
            tensor<int32, [4]> var_455_end_0 = const()[name = tensor<string, []>("op_455_end_0"), val = tensor<int32, [4]>([1, 64, 1, 375])];
            tensor<bool, [4]> var_455_end_mask_0 = const()[name = tensor<string, []>("op_455_end_mask_0"), val = tensor<bool, [4]>([true, true, true, false])];
            tensor<fp16, [1, 64, 1, 375]> var_455_cast_fp16 = slice_by_index(begin = var_455_begin_0, end = var_455_end_0, end_mask = var_455_end_mask_0, x = var_234_cast_fp16)[name = tensor<string, []>("op_455_cast_fp16")];
            tensor<int32, [4]> var_462_begin_0 = const()[name = tensor<string, []>("op_462_begin_0"), val = tensor<int32, [4]>([0, 0, 0, 375])];
            tensor<int32, [4]> var_462_end_0 = const()[name = tensor<string, []>("op_462_end_0"), val = tensor<int32, [4]>([1, 64, 1, 750])];
            tensor<bool, [4]> var_462_end_mask_0 = const()[name = tensor<string, []>("op_462_end_mask_0"), val = tensor<bool, [4]>([true, true, true, false])];
            tensor<fp16, [1, 64, 1, 375]> var_462_cast_fp16 = slice_by_index(begin = var_462_begin_0, end = var_462_end_0, end_mask = var_462_end_mask_0, x = var_234_cast_fp16)[name = tensor<string, []>("op_462_cast_fp16")];
            tensor<int32, [4]> var_469_begin_0 = const()[name = tensor<string, []>("op_469_begin_0"), val = tensor<int32, [4]>([0, 0, 0, 750])];
            tensor<int32, [4]> var_469_end_0 = const()[name = tensor<string, []>("op_469_end_0"), val = tensor<int32, [4]>([1, 64, 1, 1125])];
            tensor<bool, [4]> var_469_end_mask_0 = const()[name = tensor<string, []>("op_469_end_mask_0"), val = tensor<bool, [4]>([true, true, true, false])];
            tensor<fp16, [1, 64, 1, 375]> var_469_cast_fp16 = slice_by_index(begin = var_469_begin_0, end = var_469_end_0, end_mask = var_469_end_mask_0, x = var_234_cast_fp16)[name = tensor<string, []>("op_469_cast_fp16")];
            tensor<int32, [4]> var_476_begin_0 = const()[name = tensor<string, []>("op_476_begin_0"), val = tensor<int32, [4]>([0, 0, 0, 1125])];
            tensor<int32, [4]> var_476_end_0 = const()[name = tensor<string, []>("op_476_end_0"), val = tensor<int32, [4]>([1, 64, 1, 1500])];
            tensor<bool, [4]> var_476_end_mask_0 = const()[name = tensor<string, []>("op_476_end_mask_0"), val = tensor<bool, [4]>([true, true, true, false])];
            tensor<fp16, [1, 64, 1, 375]> var_476_cast_fp16 = slice_by_index(begin = var_476_begin_0, end = var_476_end_0, end_mask = var_476_end_mask_0, x = var_234_cast_fp16)[name = tensor<string, []>("op_476_cast_fp16")];
            tensor<int32, [4]> var_483_begin_0 = const()[name = tensor<string, []>("op_483_begin_0"), val = tensor<int32, [4]>([0, 0, 0, 0])];
            tensor<int32, [4]> var_483_end_0 = const()[name = tensor<string, []>("op_483_end_0"), val = tensor<int32, [4]>([1, 64, 1, 375])];
            tensor<bool, [4]> var_483_end_mask_0 = const()[name = tensor<string, []>("op_483_end_mask_0"), val = tensor<bool, [4]>([true, true, true, false])];
            tensor<fp16, [1, 64, 1, 375]> var_483_cast_fp16 = slice_by_index(begin = var_483_begin_0, end = var_483_end_0, end_mask = var_483_end_mask_0, x = var_238_cast_fp16)[name = tensor<string, []>("op_483_cast_fp16")];
            tensor<int32, [4]> var_490_begin_0 = const()[name = tensor<string, []>("op_490_begin_0"), val = tensor<int32, [4]>([0, 0, 0, 375])];
            tensor<int32, [4]> var_490_end_0 = const()[name = tensor<string, []>("op_490_end_0"), val = tensor<int32, [4]>([1, 64, 1, 750])];
            tensor<bool, [4]> var_490_end_mask_0 = const()[name = tensor<string, []>("op_490_end_mask_0"), val = tensor<bool, [4]>([true, true, true, false])];
            tensor<fp16, [1, 64, 1, 375]> var_490_cast_fp16 = slice_by_index(begin = var_490_begin_0, end = var_490_end_0, end_mask = var_490_end_mask_0, x = var_238_cast_fp16)[name = tensor<string, []>("op_490_cast_fp16")];
            tensor<int32, [4]> var_497_begin_0 = const()[name = tensor<string, []>("op_497_begin_0"), val = tensor<int32, [4]>([0, 0, 0, 750])];
            tensor<int32, [4]> var_497_end_0 = const()[name = tensor<string, []>("op_497_end_0"), val = tensor<int32, [4]>([1, 64, 1, 1125])];
            tensor<bool, [4]> var_497_end_mask_0 = const()[name = tensor<string, []>("op_497_end_mask_0"), val = tensor<bool, [4]>([true, true, true, false])];
            tensor<fp16, [1, 64, 1, 375]> var_497_cast_fp16 = slice_by_index(begin = var_497_begin_0, end = var_497_end_0, end_mask = var_497_end_mask_0, x = var_238_cast_fp16)[name = tensor<string, []>("op_497_cast_fp16")];
            tensor<int32, [4]> var_504_begin_0 = const()[name = tensor<string, []>("op_504_begin_0"), val = tensor<int32, [4]>([0, 0, 0, 1125])];
            tensor<int32, [4]> var_504_end_0 = const()[name = tensor<string, []>("op_504_end_0"), val = tensor<int32, [4]>([1, 64, 1, 1500])];
            tensor<bool, [4]> var_504_end_mask_0 = const()[name = tensor<string, []>("op_504_end_mask_0"), val = tensor<bool, [4]>([true, true, true, false])];
            tensor<fp16, [1, 64, 1, 375]> var_504_cast_fp16 = slice_by_index(begin = var_504_begin_0, end = var_504_end_0, end_mask = var_504_end_mask_0, x = var_238_cast_fp16)[name = tensor<string, []>("op_504_cast_fp16")];
            tensor<int32, [4]> var_511_begin_0 = const()[name = tensor<string, []>("op_511_begin_0"), val = tensor<int32, [4]>([0, 0, 0, 0])];
            tensor<int32, [4]> var_511_end_0 = const()[name = tensor<string, []>("op_511_end_0"), val = tensor<int32, [4]>([1, 64, 1, 375])];
            tensor<bool, [4]> var_511_end_mask_0 = const()[name = tensor<string, []>("op_511_end_mask_0"), val = tensor<bool, [4]>([true, true, true, false])];
            tensor<fp16, [1, 64, 1, 375]> var_511_cast_fp16 = slice_by_index(begin = var_511_begin_0, end = var_511_end_0, end_mask = var_511_end_mask_0, x = var_242_cast_fp16)[name = tensor<string, []>("op_511_cast_fp16")];
            tensor<int32, [4]> var_518_begin_0 = const()[name = tensor<string, []>("op_518_begin_0"), val = tensor<int32, [4]>([0, 0, 0, 375])];
            tensor<int32, [4]> var_518_end_0 = const()[name = tensor<string, []>("op_518_end_0"), val = tensor<int32, [4]>([1, 64, 1, 750])];
            tensor<bool, [4]> var_518_end_mask_0 = const()[name = tensor<string, []>("op_518_end_mask_0"), val = tensor<bool, [4]>([true, true, true, false])];
            tensor<fp16, [1, 64, 1, 375]> var_518_cast_fp16 = slice_by_index(begin = var_518_begin_0, end = var_518_end_0, end_mask = var_518_end_mask_0, x = var_242_cast_fp16)[name = tensor<string, []>("op_518_cast_fp16")];
            tensor<int32, [4]> var_525_begin_0 = const()[name = tensor<string, []>("op_525_begin_0"), val = tensor<int32, [4]>([0, 0, 0, 750])];
            tensor<int32, [4]> var_525_end_0 = const()[name = tensor<string, []>("op_525_end_0"), val = tensor<int32, [4]>([1, 64, 1, 1125])];
            tensor<bool, [4]> var_525_end_mask_0 = const()[name = tensor<string, []>("op_525_end_mask_0"), val = tensor<bool, [4]>([true, true, true, false])];
            tensor<fp16, [1, 64, 1, 375]> var_525_cast_fp16 = slice_by_index(begin = var_525_begin_0, end = var_525_end_0, end_mask = var_525_end_mask_0, x = var_242_cast_fp16)[name = tensor<string, []>("op_525_cast_fp16")];
            tensor<int32, [4]> var_532_begin_0 = const()[name = tensor<string, []>("op_532_begin_0"), val = tensor<int32, [4]>([0, 0, 0, 1125])];
            tensor<int32, [4]> var_532_end_0 = const()[name = tensor<string, []>("op_532_end_0"), val = tensor<int32, [4]>([1, 64, 1, 1500])];
            tensor<bool, [4]> var_532_end_mask_0 = const()[name = tensor<string, []>("op_532_end_mask_0"), val = tensor<bool, [4]>([true, true, true, false])];
            tensor<fp16, [1, 64, 1, 375]> var_532_cast_fp16 = slice_by_index(begin = var_532_begin_0, end = var_532_end_0, end_mask = var_532_end_mask_0, x = var_242_cast_fp16)[name = tensor<string, []>("op_532_cast_fp16")];
            tensor<int32, [4]> var_539_begin_0 = const()[name = tensor<string, []>("op_539_begin_0"), val = tensor<int32, [4]>([0, 0, 0, 0])];
            tensor<int32, [4]> var_539_end_0 = const()[name = tensor<string, []>("op_539_end_0"), val = tensor<int32, [4]>([1, 64, 1, 375])];
            tensor<bool, [4]> var_539_end_mask_0 = const()[name = tensor<string, []>("op_539_end_mask_0"), val = tensor<bool, [4]>([true, true, true, false])];
            tensor<fp16, [1, 64, 1, 375]> var_539_cast_fp16 = slice_by_index(begin = var_539_begin_0, end = var_539_end_0, end_mask = var_539_end_mask_0, x = var_246_cast_fp16)[name = tensor<string, []>("op_539_cast_fp16")];
            tensor<int32, [4]> var_546_begin_0 = const()[name = tensor<string, []>("op_546_begin_0"), val = tensor<int32, [4]>([0, 0, 0, 375])];
            tensor<int32, [4]> var_546_end_0 = const()[name = tensor<string, []>("op_546_end_0"), val = tensor<int32, [4]>([1, 64, 1, 750])];
            tensor<bool, [4]> var_546_end_mask_0 = const()[name = tensor<string, []>("op_546_end_mask_0"), val = tensor<bool, [4]>([true, true, true, false])];
            tensor<fp16, [1, 64, 1, 375]> var_546_cast_fp16 = slice_by_index(begin = var_546_begin_0, end = var_546_end_0, end_mask = var_546_end_mask_0, x = var_246_cast_fp16)[name = tensor<string, []>("op_546_cast_fp16")];
            tensor<int32, [4]> var_553_begin_0 = const()[name = tensor<string, []>("op_553_begin_0"), val = tensor<int32, [4]>([0, 0, 0, 750])];
            tensor<int32, [4]> var_553_end_0 = const()[name = tensor<string, []>("op_553_end_0"), val = tensor<int32, [4]>([1, 64, 1, 1125])];
            tensor<bool, [4]> var_553_end_mask_0 = const()[name = tensor<string, []>("op_553_end_mask_0"), val = tensor<bool, [4]>([true, true, true, false])];
            tensor<fp16, [1, 64, 1, 375]> var_553_cast_fp16 = slice_by_index(begin = var_553_begin_0, end = var_553_end_0, end_mask = var_553_end_mask_0, x = var_246_cast_fp16)[name = tensor<string, []>("op_553_cast_fp16")];
            tensor<int32, [4]> var_560_begin_0 = const()[name = tensor<string, []>("op_560_begin_0"), val = tensor<int32, [4]>([0, 0, 0, 1125])];
            tensor<int32, [4]> var_560_end_0 = const()[name = tensor<string, []>("op_560_end_0"), val = tensor<int32, [4]>([1, 64, 1, 1500])];
            tensor<bool, [4]> var_560_end_mask_0 = const()[name = tensor<string, []>("op_560_end_mask_0"), val = tensor<bool, [4]>([true, true, true, false])];
            tensor<fp16, [1, 64, 1, 375]> var_560_cast_fp16 = slice_by_index(begin = var_560_begin_0, end = var_560_end_0, end_mask = var_560_end_mask_0, x = var_246_cast_fp16)[name = tensor<string, []>("op_560_cast_fp16")];
            tensor<int32, [4]> var_567_begin_0 = const()[name = tensor<string, []>("op_567_begin_0"), val = tensor<int32, [4]>([0, 0, 0, 0])];
            tensor<int32, [4]> var_567_end_0 = const()[name = tensor<string, []>("op_567_end_0"), val = tensor<int32, [4]>([1, 64, 1, 375])];
            tensor<bool, [4]> var_567_end_mask_0 = const()[name = tensor<string, []>("op_567_end_mask_0"), val = tensor<bool, [4]>([true, true, true, false])];
            tensor<fp16, [1, 64, 1, 375]> var_567_cast_fp16 = slice_by_index(begin = var_567_begin_0, end = var_567_end_0, end_mask = var_567_end_mask_0, x = var_250_cast_fp16)[name = tensor<string, []>("op_567_cast_fp16")];
            tensor<int32, [4]> var_574_begin_0 = const()[name = tensor<string, []>("op_574_begin_0"), val = tensor<int32, [4]>([0, 0, 0, 375])];
            tensor<int32, [4]> var_574_end_0 = const()[name = tensor<string, []>("op_574_end_0"), val = tensor<int32, [4]>([1, 64, 1, 750])];
            tensor<bool, [4]> var_574_end_mask_0 = const()[name = tensor<string, []>("op_574_end_mask_0"), val = tensor<bool, [4]>([true, true, true, false])];
            tensor<fp16, [1, 64, 1, 375]> var_574_cast_fp16 = slice_by_index(begin = var_574_begin_0, end = var_574_end_0, end_mask = var_574_end_mask_0, x = var_250_cast_fp16)[name = tensor<string, []>("op_574_cast_fp16")];
            tensor<int32, [4]> var_581_begin_0 = const()[name = tensor<string, []>("op_581_begin_0"), val = tensor<int32, [4]>([0, 0, 0, 750])];
            tensor<int32, [4]> var_581_end_0 = const()[name = tensor<string, []>("op_581_end_0"), val = tensor<int32, [4]>([1, 64, 1, 1125])];
            tensor<bool, [4]> var_581_end_mask_0 = const()[name = tensor<string, []>("op_581_end_mask_0"), val = tensor<bool, [4]>([true, true, true, false])];
            tensor<fp16, [1, 64, 1, 375]> var_581_cast_fp16 = slice_by_index(begin = var_581_begin_0, end = var_581_end_0, end_mask = var_581_end_mask_0, x = var_250_cast_fp16)[name = tensor<string, []>("op_581_cast_fp16")];
            tensor<int32, [4]> var_588_begin_0 = const()[name = tensor<string, []>("op_588_begin_0"), val = tensor<int32, [4]>([0, 0, 0, 1125])];
            tensor<int32, [4]> var_588_end_0 = const()[name = tensor<string, []>("op_588_end_0"), val = tensor<int32, [4]>([1, 64, 1, 1500])];
            tensor<bool, [4]> var_588_end_mask_0 = const()[name = tensor<string, []>("op_588_end_mask_0"), val = tensor<bool, [4]>([true, true, true, false])];
            tensor<fp16, [1, 64, 1, 375]> var_588_cast_fp16 = slice_by_index(begin = var_588_begin_0, end = var_588_end_0, end_mask = var_588_end_mask_0, x = var_250_cast_fp16)[name = tensor<string, []>("op_588_cast_fp16")];
            tensor<int32, [4]> k_1_perm_0 = const()[name = tensor<string, []>("k_1_perm_0"), val = tensor<int32, [4]>([0, 3, 2, 1])];
            tensor<int32, [4]> var_593_begin_0 = const()[name = tensor<string, []>("op_593_begin_0"), val = tensor<int32, [4]>([0, 0, 0, 0])];
            tensor<int32, [4]> var_593_end_0 = const()[name = tensor<string, []>("op_593_end_0"), val = tensor<int32, [4]>([1, 1500, 1, 64])];
            tensor<bool, [4]> var_593_end_mask_0 = const()[name = tensor<string, []>("op_593_end_mask_0"), val = tensor<bool, [4]>([true, true, true, false])];
            tensor<fp16, [1, 1500, 1, 768]> transpose_11 = transpose(perm = k_1_perm_0, x = key_1_cast_fp16)[name = tensor<string, []>("transpose_11")];
            tensor<fp16, [1, 1500, 1, 64]> var_593_cast_fp16 = slice_by_index(begin = var_593_begin_0, end = var_593_end_0, end_mask = var_593_end_mask_0, x = transpose_11)[name = tensor<string, []>("op_593_cast_fp16")];
            tensor<int32, [4]> var_597_begin_0 = const()[name = tensor<string, []>("op_597_begin_0"), val = tensor<int32, [4]>([0, 0, 0, 64])];
            tensor<int32, [4]> var_597_end_0 = const()[name = tensor<string, []>("op_597_end_0"), val = tensor<int32, [4]>([1, 1500, 1, 128])];
            tensor<bool, [4]> var_597_end_mask_0 = const()[name = tensor<string, []>("op_597_end_mask_0"), val = tensor<bool, [4]>([true, true, true, false])];
            tensor<fp16, [1, 1500, 1, 64]> var_597_cast_fp16 = slice_by_index(begin = var_597_begin_0, end = var_597_end_0, end_mask = var_597_end_mask_0, x = transpose_11)[name = tensor<string, []>("op_597_cast_fp16")];
            tensor<int32, [4]> var_601_begin_0 = const()[name = tensor<string, []>("op_601_begin_0"), val = tensor<int32, [4]>([0, 0, 0, 128])];
            tensor<int32, [4]> var_601_end_0 = const()[name = tensor<string, []>("op_601_end_0"), val = tensor<int32, [4]>([1, 1500, 1, 192])];
            tensor<bool, [4]> var_601_end_mask_0 = const()[name = tensor<string, []>("op_601_end_mask_0"), val = tensor<bool, [4]>([true, true, true, false])];
            tensor<fp16, [1, 1500, 1, 64]> var_601_cast_fp16 = slice_by_index(begin = var_601_begin_0, end = var_601_end_0, end_mask = var_601_end_mask_0, x = transpose_11)[name = tensor<string, []>("op_601_cast_fp16")];
            tensor<int32, [4]> var_605_begin_0 = const()[name = tensor<string, []>("op_605_begin_0"), val = tensor<int32, [4]>([0, 0, 0, 192])];
            tensor<int32, [4]> var_605_end_0 = const()[name = tensor<string, []>("op_605_end_0"), val = tensor<int32, [4]>([1, 1500, 1, 256])];
            tensor<bool, [4]> var_605_end_mask_0 = const()[name = tensor<string, []>("op_605_end_mask_0"), val = tensor<bool, [4]>([true, true, true, false])];
            tensor<fp16, [1, 1500, 1, 64]> var_605_cast_fp16 = slice_by_index(begin = var_605_begin_0, end = var_605_end_0, end_mask = var_605_end_mask_0, x = transpose_11)[name = tensor<string, []>("op_605_cast_fp16")];
            tensor<int32, [4]> var_609_begin_0 = const()[name = tensor<string, []>("op_609_begin_0"), val = tensor<int32, [4]>([0, 0, 0, 256])];
            tensor<int32, [4]> var_609_end_0 = const()[name = tensor<string, []>("op_609_end_0"), val = tensor<int32, [4]>([1, 1500, 1, 320])];
            tensor<bool, [4]> var_609_end_mask_0 = const()[name = tensor<string, []>("op_609_end_mask_0"), val = tensor<bool, [4]>([true, true, true, false])];
            tensor<fp16, [1, 1500, 1, 64]> var_609_cast_fp16 = slice_by_index(begin = var_609_begin_0, end = var_609_end_0, end_mask = var_609_end_mask_0, x = transpose_11)[name = tensor<string, []>("op_609_cast_fp16")];
            tensor<int32, [4]> var_613_begin_0 = const()[name = tensor<string, []>("op_613_begin_0"), val = tensor<int32, [4]>([0, 0, 0, 320])];
            tensor<int32, [4]> var_613_end_0 = const()[name = tensor<string, []>("op_613_end_0"), val = tensor<int32, [4]>([1, 1500, 1, 384])];
            tensor<bool, [4]> var_613_end_mask_0 = const()[name = tensor<string, []>("op_613_end_mask_0"), val = tensor<bool, [4]>([true, true, true, false])];
            tensor<fp16, [1, 1500, 1, 64]> var_613_cast_fp16 = slice_by_index(begin = var_613_begin_0, end = var_613_end_0, end_mask = var_613_end_mask_0, x = transpose_11)[name = tensor<string, []>("op_613_cast_fp16")];
            tensor<int32, [4]> var_617_begin_0 = const()[name = tensor<string, []>("op_617_begin_0"), val = tensor<int32, [4]>([0, 0, 0, 384])];
            tensor<int32, [4]> var_617_end_0 = const()[name = tensor<string, []>("op_617_end_0"), val = tensor<int32, [4]>([1, 1500, 1, 448])];
            tensor<bool, [4]> var_617_end_mask_0 = const()[name = tensor<string, []>("op_617_end_mask_0"), val = tensor<bool, [4]>([true, true, true, false])];
            tensor<fp16, [1, 1500, 1, 64]> var_617_cast_fp16 = slice_by_index(begin = var_617_begin_0, end = var_617_end_0, end_mask = var_617_end_mask_0, x = transpose_11)[name = tensor<string, []>("op_617_cast_fp16")];
            tensor<int32, [4]> var_621_begin_0 = const()[name = tensor<string, []>("op_621_begin_0"), val = tensor<int32, [4]>([0, 0, 0, 448])];
            tensor<int32, [4]> var_621_end_0 = const()[name = tensor<string, []>("op_621_end_0"), val = tensor<int32, [4]>([1, 1500, 1, 512])];
            tensor<bool, [4]> var_621_end_mask_0 = const()[name = tensor<string, []>("op_621_end_mask_0"), val = tensor<bool, [4]>([true, true, true, false])];
            tensor<fp16, [1, 1500, 1, 64]> var_621_cast_fp16 = slice_by_index(begin = var_621_begin_0, end = var_621_end_0, end_mask = var_621_end_mask_0, x = transpose_11)[name = tensor<string, []>("op_621_cast_fp16")];
            tensor<int32, [4]> var_625_begin_0 = const()[name = tensor<string, []>("op_625_begin_0"), val = tensor<int32, [4]>([0, 0, 0, 512])];
            tensor<int32, [4]> var_625_end_0 = const()[name = tensor<string, []>("op_625_end_0"), val = tensor<int32, [4]>([1, 1500, 1, 576])];
            tensor<bool, [4]> var_625_end_mask_0 = const()[name = tensor<string, []>("op_625_end_mask_0"), val = tensor<bool, [4]>([true, true, true, false])];
            tensor<fp16, [1, 1500, 1, 64]> var_625_cast_fp16 = slice_by_index(begin = var_625_begin_0, end = var_625_end_0, end_mask = var_625_end_mask_0, x = transpose_11)[name = tensor<string, []>("op_625_cast_fp16")];
            tensor<int32, [4]> var_629_begin_0 = const()[name = tensor<string, []>("op_629_begin_0"), val = tensor<int32, [4]>([0, 0, 0, 576])];
            tensor<int32, [4]> var_629_end_0 = const()[name = tensor<string, []>("op_629_end_0"), val = tensor<int32, [4]>([1, 1500, 1, 640])];
            tensor<bool, [4]> var_629_end_mask_0 = const()[name = tensor<string, []>("op_629_end_mask_0"), val = tensor<bool, [4]>([true, true, true, false])];
            tensor<fp16, [1, 1500, 1, 64]> var_629_cast_fp16 = slice_by_index(begin = var_629_begin_0, end = var_629_end_0, end_mask = var_629_end_mask_0, x = transpose_11)[name = tensor<string, []>("op_629_cast_fp16")];
            tensor<int32, [4]> var_633_begin_0 = const()[name = tensor<string, []>("op_633_begin_0"), val = tensor<int32, [4]>([0, 0, 0, 640])];
            tensor<int32, [4]> var_633_end_0 = const()[name = tensor<string, []>("op_633_end_0"), val = tensor<int32, [4]>([1, 1500, 1, 704])];
            tensor<bool, [4]> var_633_end_mask_0 = const()[name = tensor<string, []>("op_633_end_mask_0"), val = tensor<bool, [4]>([true, true, true, false])];
            tensor<fp16, [1, 1500, 1, 64]> var_633_cast_fp16 = slice_by_index(begin = var_633_begin_0, end = var_633_end_0, end_mask = var_633_end_mask_0, x = transpose_11)[name = tensor<string, []>("op_633_cast_fp16")];
            tensor<int32, [4]> var_637_begin_0 = const()[name = tensor<string, []>("op_637_begin_0"), val = tensor<int32, [4]>([0, 0, 0, 704])];
            tensor<int32, [4]> var_637_end_0 = const()[name = tensor<string, []>("op_637_end_0"), val = tensor<int32, [4]>([1, 1500, 1, 768])];
            tensor<bool, [4]> var_637_end_mask_0 = const()[name = tensor<string, []>("op_637_end_mask_0"), val = tensor<bool, [4]>([true, true, true, false])];
            tensor<fp16, [1, 1500, 1, 64]> var_637_cast_fp16 = slice_by_index(begin = var_637_begin_0, end = var_637_end_0, end_mask = var_637_end_mask_0, x = transpose_11)[name = tensor<string, []>("op_637_cast_fp16")];
            tensor<int32, [4]> var_639_begin_0 = const()[name = tensor<string, []>("op_639_begin_0"), val = tensor<int32, [4]>([0, 0, 0, 0])];
            tensor<int32, [4]> var_639_end_0 = const()[name = tensor<string, []>("op_639_end_0"), val = tensor<int32, [4]>([1, 64, 1, 1500])];
            tensor<bool, [4]> var_639_end_mask_0 = const()[name = tensor<string, []>("op_639_end_mask_0"), val = tensor<bool, [4]>([true, false, true, true])];
            tensor<fp16, [1, 64, 1, 1500]> var_639_cast_fp16 = slice_by_index(begin = var_639_begin_0, end = var_639_end_0, end_mask = var_639_end_mask_0, x = value_1_cast_fp16)[name = tensor<string, []>("op_639_cast_fp16")];
            tensor<int32, [4]> var_643_begin_0 = const()[name = tensor<string, []>("op_643_begin_0"), val = tensor<int32, [4]>([0, 64, 0, 0])];
            tensor<int32, [4]> var_643_end_0 = const()[name = tensor<string, []>("op_643_end_0"), val = tensor<int32, [4]>([1, 128, 1, 1500])];
            tensor<bool, [4]> var_643_end_mask_0 = const()[name = tensor<string, []>("op_643_end_mask_0"), val = tensor<bool, [4]>([true, false, true, true])];
            tensor<fp16, [1, 64, 1, 1500]> var_643_cast_fp16 = slice_by_index(begin = var_643_begin_0, end = var_643_end_0, end_mask = var_643_end_mask_0, x = value_1_cast_fp16)[name = tensor<string, []>("op_643_cast_fp16")];
            tensor<int32, [4]> var_647_begin_0 = const()[name = tensor<string, []>("op_647_begin_0"), val = tensor<int32, [4]>([0, 128, 0, 0])];
            tensor<int32, [4]> var_647_end_0 = const()[name = tensor<string, []>("op_647_end_0"), val = tensor<int32, [4]>([1, 192, 1, 1500])];
            tensor<bool, [4]> var_647_end_mask_0 = const()[name = tensor<string, []>("op_647_end_mask_0"), val = tensor<bool, [4]>([true, false, true, true])];
            tensor<fp16, [1, 64, 1, 1500]> var_647_cast_fp16 = slice_by_index(begin = var_647_begin_0, end = var_647_end_0, end_mask = var_647_end_mask_0, x = value_1_cast_fp16)[name = tensor<string, []>("op_647_cast_fp16")];
            tensor<int32, [4]> var_651_begin_0 = const()[name = tensor<string, []>("op_651_begin_0"), val = tensor<int32, [4]>([0, 192, 0, 0])];
            tensor<int32, [4]> var_651_end_0 = const()[name = tensor<string, []>("op_651_end_0"), val = tensor<int32, [4]>([1, 256, 1, 1500])];
            tensor<bool, [4]> var_651_end_mask_0 = const()[name = tensor<string, []>("op_651_end_mask_0"), val = tensor<bool, [4]>([true, false, true, true])];
            tensor<fp16, [1, 64, 1, 1500]> var_651_cast_fp16 = slice_by_index(begin = var_651_begin_0, end = var_651_end_0, end_mask = var_651_end_mask_0, x = value_1_cast_fp16)[name = tensor<string, []>("op_651_cast_fp16")];
            tensor<int32, [4]> var_655_begin_0 = const()[name = tensor<string, []>("op_655_begin_0"), val = tensor<int32, [4]>([0, 256, 0, 0])];
            tensor<int32, [4]> var_655_end_0 = const()[name = tensor<string, []>("op_655_end_0"), val = tensor<int32, [4]>([1, 320, 1, 1500])];
            tensor<bool, [4]> var_655_end_mask_0 = const()[name = tensor<string, []>("op_655_end_mask_0"), val = tensor<bool, [4]>([true, false, true, true])];
            tensor<fp16, [1, 64, 1, 1500]> var_655_cast_fp16 = slice_by_index(begin = var_655_begin_0, end = var_655_end_0, end_mask = var_655_end_mask_0, x = value_1_cast_fp16)[name = tensor<string, []>("op_655_cast_fp16")];
            tensor<int32, [4]> var_659_begin_0 = const()[name = tensor<string, []>("op_659_begin_0"), val = tensor<int32, [4]>([0, 320, 0, 0])];
            tensor<int32, [4]> var_659_end_0 = const()[name = tensor<string, []>("op_659_end_0"), val = tensor<int32, [4]>([1, 384, 1, 1500])];
            tensor<bool, [4]> var_659_end_mask_0 = const()[name = tensor<string, []>("op_659_end_mask_0"), val = tensor<bool, [4]>([true, false, true, true])];
            tensor<fp16, [1, 64, 1, 1500]> var_659_cast_fp16 = slice_by_index(begin = var_659_begin_0, end = var_659_end_0, end_mask = var_659_end_mask_0, x = value_1_cast_fp16)[name = tensor<string, []>("op_659_cast_fp16")];
            tensor<int32, [4]> var_663_begin_0 = const()[name = tensor<string, []>("op_663_begin_0"), val = tensor<int32, [4]>([0, 384, 0, 0])];
            tensor<int32, [4]> var_663_end_0 = const()[name = tensor<string, []>("op_663_end_0"), val = tensor<int32, [4]>([1, 448, 1, 1500])];
            tensor<bool, [4]> var_663_end_mask_0 = const()[name = tensor<string, []>("op_663_end_mask_0"), val = tensor<bool, [4]>([true, false, true, true])];
            tensor<fp16, [1, 64, 1, 1500]> var_663_cast_fp16 = slice_by_index(begin = var_663_begin_0, end = var_663_end_0, end_mask = var_663_end_mask_0, x = value_1_cast_fp16)[name = tensor<string, []>("op_663_cast_fp16")];
            tensor<int32, [4]> var_667_begin_0 = const()[name = tensor<string, []>("op_667_begin_0"), val = tensor<int32, [4]>([0, 448, 0, 0])];
            tensor<int32, [4]> var_667_end_0 = const()[name = tensor<string, []>("op_667_end_0"), val = tensor<int32, [4]>([1, 512, 1, 1500])];
            tensor<bool, [4]> var_667_end_mask_0 = const()[name = tensor<string, []>("op_667_end_mask_0"), val = tensor<bool, [4]>([true, false, true, true])];
            tensor<fp16, [1, 64, 1, 1500]> var_667_cast_fp16 = slice_by_index(begin = var_667_begin_0, end = var_667_end_0, end_mask = var_667_end_mask_0, x = value_1_cast_fp16)[name = tensor<string, []>("op_667_cast_fp16")];
            tensor<int32, [4]> var_671_begin_0 = const()[name = tensor<string, []>("op_671_begin_0"), val = tensor<int32, [4]>([0, 512, 0, 0])];
            tensor<int32, [4]> var_671_end_0 = const()[name = tensor<string, []>("op_671_end_0"), val = tensor<int32, [4]>([1, 576, 1, 1500])];
            tensor<bool, [4]> var_671_end_mask_0 = const()[name = tensor<string, []>("op_671_end_mask_0"), val = tensor<bool, [4]>([true, false, true, true])];
            tensor<fp16, [1, 64, 1, 1500]> var_671_cast_fp16 = slice_by_index(begin = var_671_begin_0, end = var_671_end_0, end_mask = var_671_end_mask_0, x = value_1_cast_fp16)[name = tensor<string, []>("op_671_cast_fp16")];
            tensor<int32, [4]> var_675_begin_0 = const()[name = tensor<string, []>("op_675_begin_0"), val = tensor<int32, [4]>([0, 576, 0, 0])];
            tensor<int32, [4]> var_675_end_0 = const()[name = tensor<string, []>("op_675_end_0"), val = tensor<int32, [4]>([1, 640, 1, 1500])];
            tensor<bool, [4]> var_675_end_mask_0 = const()[name = tensor<string, []>("op_675_end_mask_0"), val = tensor<bool, [4]>([true, false, true, true])];
            tensor<fp16, [1, 64, 1, 1500]> var_675_cast_fp16 = slice_by_index(begin = var_675_begin_0, end = var_675_end_0, end_mask = var_675_end_mask_0, x = value_1_cast_fp16)[name = tensor<string, []>("op_675_cast_fp16")];
            tensor<int32, [4]> var_679_begin_0 = const()[name = tensor<string, []>("op_679_begin_0"), val = tensor<int32, [4]>([0, 640, 0, 0])];
            tensor<int32, [4]> var_679_end_0 = const()[name = tensor<string, []>("op_679_end_0"), val = tensor<int32, [4]>([1, 704, 1, 1500])];
            tensor<bool, [4]> var_679_end_mask_0 = const()[name = tensor<string, []>("op_679_end_mask_0"), val = tensor<bool, [4]>([true, false, true, true])];
            tensor<fp16, [1, 64, 1, 1500]> var_679_cast_fp16 = slice_by_index(begin = var_679_begin_0, end = var_679_end_0, end_mask = var_679_end_mask_0, x = value_1_cast_fp16)[name = tensor<string, []>("op_679_cast_fp16")];
            tensor<int32, [4]> var_683_begin_0 = const()[name = tensor<string, []>("op_683_begin_0"), val = tensor<int32, [4]>([0, 704, 0, 0])];
            tensor<int32, [4]> var_683_end_0 = const()[name = tensor<string, []>("op_683_end_0"), val = tensor<int32, [4]>([1, 768, 1, 1500])];
            tensor<bool, [4]> var_683_end_mask_0 = const()[name = tensor<string, []>("op_683_end_mask_0"), val = tensor<bool, [4]>([true, false, true, true])];
            tensor<fp16, [1, 64, 1, 1500]> var_683_cast_fp16 = slice_by_index(begin = var_683_begin_0, end = var_683_end_0, end_mask = var_683_end_mask_0, x = value_1_cast_fp16)[name = tensor<string, []>("op_683_cast_fp16")];
            tensor<string, []> var_687_equation_0 = const()[name = tensor<string, []>("op_687_equation_0"), val = tensor<string, []>("bkhc,bchq->bkhq")];
            tensor<fp16, [1, 1500, 1, 375]> var_687_cast_fp16 = einsum(equation = var_687_equation_0, values = (var_593_cast_fp16, var_259_cast_fp16))[name = tensor<string, []>("op_687_cast_fp16")];
            tensor<fp16, []> var_688_to_fp16 = const()[name = tensor<string, []>("op_688_to_fp16"), val = tensor<fp16, []>(0x1p-3)];
            tensor<fp16, [1, 1500, 1, 375]> aw_chunk_1_cast_fp16 = mul(x = var_687_cast_fp16, y = var_688_to_fp16)[name = tensor<string, []>("aw_chunk_1_cast_fp16")];
            tensor<string, []> var_691_equation_0 = const()[name = tensor<string, []>("op_691_equation_0"), val = tensor<string, []>("bkhc,bchq->bkhq")];
            tensor<fp16, [1, 1500, 1, 375]> var_691_cast_fp16 = einsum(equation = var_691_equation_0, values = (var_593_cast_fp16, var_266_cast_fp16))[name = tensor<string, []>("op_691_cast_fp16")];
            tensor<fp16, []> var_692_to_fp16 = const()[name = tensor<string, []>("op_692_to_fp16"), val = tensor<fp16, []>(0x1p-3)];
            tensor<fp16, [1, 1500, 1, 375]> aw_chunk_3_cast_fp16 = mul(x = var_691_cast_fp16, y = var_692_to_fp16)[name = tensor<string, []>("aw_chunk_3_cast_fp16")];
            tensor<string, []> var_695_equation_0 = const()[name = tensor<string, []>("op_695_equation_0"), val = tensor<string, []>("bkhc,bchq->bkhq")];
            tensor<fp16, [1, 1500, 1, 375]> var_695_cast_fp16 = einsum(equation = var_695_equation_0, values = (var_593_cast_fp16, var_273_cast_fp16))[name = tensor<string, []>("op_695_cast_fp16")];
            tensor<fp16, []> var_696_to_fp16 = const()[name = tensor<string, []>("op_696_to_fp16"), val = tensor<fp16, []>(0x1p-3)];
            tensor<fp16, [1, 1500, 1, 375]> aw_chunk_5_cast_fp16 = mul(x = var_695_cast_fp16, y = var_696_to_fp16)[name = tensor<string, []>("aw_chunk_5_cast_fp16")];
            tensor<string, []> var_699_equation_0 = const()[name = tensor<string, []>("op_699_equation_0"), val = tensor<string, []>("bkhc,bchq->bkhq")];
            tensor<fp16, [1, 1500, 1, 375]> var_699_cast_fp16 = einsum(equation = var_699_equation_0, values = (var_593_cast_fp16, var_280_cast_fp16))[name = tensor<string, []>("op_699_cast_fp16")];
            tensor<fp16, []> var_700_to_fp16 = const()[name = tensor<string, []>("op_700_to_fp16"), val = tensor<fp16, []>(0x1p-3)];
            tensor<fp16, [1, 1500, 1, 375]> aw_chunk_7_cast_fp16 = mul(x = var_699_cast_fp16, y = var_700_to_fp16)[name = tensor<string, []>("aw_chunk_7_cast_fp16")];
            tensor<string, []> var_703_equation_0 = const()[name = tensor<string, []>("op_703_equation_0"), val = tensor<string, []>("bkhc,bchq->bkhq")];
            tensor<fp16, [1, 1500, 1, 375]> var_703_cast_fp16 = einsum(equation = var_703_equation_0, values = (var_597_cast_fp16, var_287_cast_fp16))[name = tensor<string, []>("op_703_cast_fp16")];
            tensor<fp16, []> var_704_to_fp16 = const()[name = tensor<string, []>("op_704_to_fp16"), val = tensor<fp16, []>(0x1p-3)];
            tensor<fp16, [1, 1500, 1, 375]> aw_chunk_9_cast_fp16 = mul(x = var_703_cast_fp16, y = var_704_to_fp16)[name = tensor<string, []>("aw_chunk_9_cast_fp16")];
            tensor<string, []> var_707_equation_0 = const()[name = tensor<string, []>("op_707_equation_0"), val = tensor<string, []>("bkhc,bchq->bkhq")];
            tensor<fp16, [1, 1500, 1, 375]> var_707_cast_fp16 = einsum(equation = var_707_equation_0, values = (var_597_cast_fp16, var_294_cast_fp16))[name = tensor<string, []>("op_707_cast_fp16")];
            tensor<fp16, []> var_708_to_fp16 = const()[name = tensor<string, []>("op_708_to_fp16"), val = tensor<fp16, []>(0x1p-3)];
            tensor<fp16, [1, 1500, 1, 375]> aw_chunk_11_cast_fp16 = mul(x = var_707_cast_fp16, y = var_708_to_fp16)[name = tensor<string, []>("aw_chunk_11_cast_fp16")];
            tensor<string, []> var_711_equation_0 = const()[name = tensor<string, []>("op_711_equation_0"), val = tensor<string, []>("bkhc,bchq->bkhq")];
            tensor<fp16, [1, 1500, 1, 375]> var_711_cast_fp16 = einsum(equation = var_711_equation_0, values = (var_597_cast_fp16, var_301_cast_fp16))[name = tensor<string, []>("op_711_cast_fp16")];
            tensor<fp16, []> var_712_to_fp16 = const()[name = tensor<string, []>("op_712_to_fp16"), val = tensor<fp16, []>(0x1p-3)];
            tensor<fp16, [1, 1500, 1, 375]> aw_chunk_13_cast_fp16 = mul(x = var_711_cast_fp16, y = var_712_to_fp16)[name = tensor<string, []>("aw_chunk_13_cast_fp16")];
            tensor<string, []> var_715_equation_0 = const()[name = tensor<string, []>("op_715_equation_0"), val = tensor<string, []>("bkhc,bchq->bkhq")];
            tensor<fp16, [1, 1500, 1, 375]> var_715_cast_fp16 = einsum(equation = var_715_equation_0, values = (var_597_cast_fp16, var_308_cast_fp16))[name = tensor<string, []>("op_715_cast_fp16")];
            tensor<fp16, []> var_716_to_fp16 = const()[name = tensor<string, []>("op_716_to_fp16"), val = tensor<fp16, []>(0x1p-3)];
            tensor<fp16, [1, 1500, 1, 375]> aw_chunk_15_cast_fp16 = mul(x = var_715_cast_fp16, y = var_716_to_fp16)[name = tensor<string, []>("aw_chunk_15_cast_fp16")];
            tensor<string, []> var_719_equation_0 = const()[name = tensor<string, []>("op_719_equation_0"), val = tensor<string, []>("bkhc,bchq->bkhq")];
            tensor<fp16, [1, 1500, 1, 375]> var_719_cast_fp16 = einsum(equation = var_719_equation_0, values = (var_601_cast_fp16, var_315_cast_fp16))[name = tensor<string, []>("op_719_cast_fp16")];
            tensor<fp16, []> var_720_to_fp16 = const()[name = tensor<string, []>("op_720_to_fp16"), val = tensor<fp16, []>(0x1p-3)];
            tensor<fp16, [1, 1500, 1, 375]> aw_chunk_17_cast_fp16 = mul(x = var_719_cast_fp16, y = var_720_to_fp16)[name = tensor<string, []>("aw_chunk_17_cast_fp16")];
            tensor<string, []> var_723_equation_0 = const()[name = tensor<string, []>("op_723_equation_0"), val = tensor<string, []>("bkhc,bchq->bkhq")];
            tensor<fp16, [1, 1500, 1, 375]> var_723_cast_fp16 = einsum(equation = var_723_equation_0, values = (var_601_cast_fp16, var_322_cast_fp16))[name = tensor<string, []>("op_723_cast_fp16")];
            tensor<fp16, []> var_724_to_fp16 = const()[name = tensor<string, []>("op_724_to_fp16"), val = tensor<fp16, []>(0x1p-3)];
            tensor<fp16, [1, 1500, 1, 375]> aw_chunk_19_cast_fp16 = mul(x = var_723_cast_fp16, y = var_724_to_fp16)[name = tensor<string, []>("aw_chunk_19_cast_fp16")];
            tensor<string, []> var_727_equation_0 = const()[name = tensor<string, []>("op_727_equation_0"), val = tensor<string, []>("bkhc,bchq->bkhq")];
            tensor<fp16, [1, 1500, 1, 375]> var_727_cast_fp16 = einsum(equation = var_727_equation_0, values = (var_601_cast_fp16, var_329_cast_fp16))[name = tensor<string, []>("op_727_cast_fp16")];
            tensor<fp16, []> var_728_to_fp16 = const()[name = tensor<string, []>("op_728_to_fp16"), val = tensor<fp16, []>(0x1p-3)];
            tensor<fp16, [1, 1500, 1, 375]> aw_chunk_21_cast_fp16 = mul(x = var_727_cast_fp16, y = var_728_to_fp16)[name = tensor<string, []>("aw_chunk_21_cast_fp16")];
            tensor<string, []> var_731_equation_0 = const()[name = tensor<string, []>("op_731_equation_0"), val = tensor<string, []>("bkhc,bchq->bkhq")];
            tensor<fp16, [1, 1500, 1, 375]> var_731_cast_fp16 = einsum(equation = var_731_equation_0, values = (var_601_cast_fp16, var_336_cast_fp16))[name = tensor<string, []>("op_731_cast_fp16")];
            tensor<fp16, []> var_732_to_fp16 = const()[name = tensor<string, []>("op_732_to_fp16"), val = tensor<fp16, []>(0x1p-3)];
            tensor<fp16, [1, 1500, 1, 375]> aw_chunk_23_cast_fp16 = mul(x = var_731_cast_fp16, y = var_732_to_fp16)[name = tensor<string, []>("aw_chunk_23_cast_fp16")];
            tensor<string, []> var_735_equation_0 = const()[name = tensor<string, []>("op_735_equation_0"), val = tensor<string, []>("bkhc,bchq->bkhq")];
            tensor<fp16, [1, 1500, 1, 375]> var_735_cast_fp16 = einsum(equation = var_735_equation_0, values = (var_605_cast_fp16, var_343_cast_fp16))[name = tensor<string, []>("op_735_cast_fp16")];
            tensor<fp16, []> var_736_to_fp16 = const()[name = tensor<string, []>("op_736_to_fp16"), val = tensor<fp16, []>(0x1p-3)];
            tensor<fp16, [1, 1500, 1, 375]> aw_chunk_25_cast_fp16 = mul(x = var_735_cast_fp16, y = var_736_to_fp16)[name = tensor<string, []>("aw_chunk_25_cast_fp16")];
            tensor<string, []> var_739_equation_0 = const()[name = tensor<string, []>("op_739_equation_0"), val = tensor<string, []>("bkhc,bchq->bkhq")];
            tensor<fp16, [1, 1500, 1, 375]> var_739_cast_fp16 = einsum(equation = var_739_equation_0, values = (var_605_cast_fp16, var_350_cast_fp16))[name = tensor<string, []>("op_739_cast_fp16")];
            tensor<fp16, []> var_740_to_fp16 = const()[name = tensor<string, []>("op_740_to_fp16"), val = tensor<fp16, []>(0x1p-3)];
            tensor<fp16, [1, 1500, 1, 375]> aw_chunk_27_cast_fp16 = mul(x = var_739_cast_fp16, y = var_740_to_fp16)[name = tensor<string, []>("aw_chunk_27_cast_fp16")];
            tensor<string, []> var_743_equation_0 = const()[name = tensor<string, []>("op_743_equation_0"), val = tensor<string, []>("bkhc,bchq->bkhq")];
            tensor<fp16, [1, 1500, 1, 375]> var_743_cast_fp16 = einsum(equation = var_743_equation_0, values = (var_605_cast_fp16, var_357_cast_fp16))[name = tensor<string, []>("op_743_cast_fp16")];
            tensor<fp16, []> var_744_to_fp16 = const()[name = tensor<string, []>("op_744_to_fp16"), val = tensor<fp16, []>(0x1p-3)];
            tensor<fp16, [1, 1500, 1, 375]> aw_chunk_29_cast_fp16 = mul(x = var_743_cast_fp16, y = var_744_to_fp16)[name = tensor<string, []>("aw_chunk_29_cast_fp16")];
            tensor<string, []> var_747_equation_0 = const()[name = tensor<string, []>("op_747_equation_0"), val = tensor<string, []>("bkhc,bchq->bkhq")];
            tensor<fp16, [1, 1500, 1, 375]> var_747_cast_fp16 = einsum(equation = var_747_equation_0, values = (var_605_cast_fp16, var_364_cast_fp16))[name = tensor<string, []>("op_747_cast_fp16")];
            tensor<fp16, []> var_748_to_fp16 = const()[name = tensor<string, []>("op_748_to_fp16"), val = tensor<fp16, []>(0x1p-3)];
            tensor<fp16, [1, 1500, 1, 375]> aw_chunk_31_cast_fp16 = mul(x = var_747_cast_fp16, y = var_748_to_fp16)[name = tensor<string, []>("aw_chunk_31_cast_fp16")];
            tensor<string, []> var_751_equation_0 = const()[name = tensor<string, []>("op_751_equation_0"), val = tensor<string, []>("bkhc,bchq->bkhq")];
            tensor<fp16, [1, 1500, 1, 375]> var_751_cast_fp16 = einsum(equation = var_751_equation_0, values = (var_609_cast_fp16, var_371_cast_fp16))[name = tensor<string, []>("op_751_cast_fp16")];
            tensor<fp16, []> var_752_to_fp16 = const()[name = tensor<string, []>("op_752_to_fp16"), val = tensor<fp16, []>(0x1p-3)];
            tensor<fp16, [1, 1500, 1, 375]> aw_chunk_33_cast_fp16 = mul(x = var_751_cast_fp16, y = var_752_to_fp16)[name = tensor<string, []>("aw_chunk_33_cast_fp16")];
            tensor<string, []> var_755_equation_0 = const()[name = tensor<string, []>("op_755_equation_0"), val = tensor<string, []>("bkhc,bchq->bkhq")];
            tensor<fp16, [1, 1500, 1, 375]> var_755_cast_fp16 = einsum(equation = var_755_equation_0, values = (var_609_cast_fp16, var_378_cast_fp16))[name = tensor<string, []>("op_755_cast_fp16")];
            tensor<fp16, []> var_756_to_fp16 = const()[name = tensor<string, []>("op_756_to_fp16"), val = tensor<fp16, []>(0x1p-3)];
            tensor<fp16, [1, 1500, 1, 375]> aw_chunk_35_cast_fp16 = mul(x = var_755_cast_fp16, y = var_756_to_fp16)[name = tensor<string, []>("aw_chunk_35_cast_fp16")];
            tensor<string, []> var_759_equation_0 = const()[name = tensor<string, []>("op_759_equation_0"), val = tensor<string, []>("bkhc,bchq->bkhq")];
            tensor<fp16, [1, 1500, 1, 375]> var_759_cast_fp16 = einsum(equation = var_759_equation_0, values = (var_609_cast_fp16, var_385_cast_fp16))[name = tensor<string, []>("op_759_cast_fp16")];
            tensor<fp16, []> var_760_to_fp16 = const()[name = tensor<string, []>("op_760_to_fp16"), val = tensor<fp16, []>(0x1p-3)];
            tensor<fp16, [1, 1500, 1, 375]> aw_chunk_37_cast_fp16 = mul(x = var_759_cast_fp16, y = var_760_to_fp16)[name = tensor<string, []>("aw_chunk_37_cast_fp16")];
            tensor<string, []> var_763_equation_0 = const()[name = tensor<string, []>("op_763_equation_0"), val = tensor<string, []>("bkhc,bchq->bkhq")];
            tensor<fp16, [1, 1500, 1, 375]> var_763_cast_fp16 = einsum(equation = var_763_equation_0, values = (var_609_cast_fp16, var_392_cast_fp16))[name = tensor<string, []>("op_763_cast_fp16")];
            tensor<fp16, []> var_764_to_fp16 = const()[name = tensor<string, []>("op_764_to_fp16"), val = tensor<fp16, []>(0x1p-3)];
            tensor<fp16, [1, 1500, 1, 375]> aw_chunk_39_cast_fp16 = mul(x = var_763_cast_fp16, y = var_764_to_fp16)[name = tensor<string, []>("aw_chunk_39_cast_fp16")];
            tensor<string, []> var_767_equation_0 = const()[name = tensor<string, []>("op_767_equation_0"), val = tensor<string, []>("bkhc,bchq->bkhq")];
            tensor<fp16, [1, 1500, 1, 375]> var_767_cast_fp16 = einsum(equation = var_767_equation_0, values = (var_613_cast_fp16, var_399_cast_fp16))[name = tensor<string, []>("op_767_cast_fp16")];
            tensor<fp16, []> var_768_to_fp16 = const()[name = tensor<string, []>("op_768_to_fp16"), val = tensor<fp16, []>(0x1p-3)];
            tensor<fp16, [1, 1500, 1, 375]> aw_chunk_41_cast_fp16 = mul(x = var_767_cast_fp16, y = var_768_to_fp16)[name = tensor<string, []>("aw_chunk_41_cast_fp16")];
            tensor<string, []> var_771_equation_0 = const()[name = tensor<string, []>("op_771_equation_0"), val = tensor<string, []>("bkhc,bchq->bkhq")];
            tensor<fp16, [1, 1500, 1, 375]> var_771_cast_fp16 = einsum(equation = var_771_equation_0, values = (var_613_cast_fp16, var_406_cast_fp16))[name = tensor<string, []>("op_771_cast_fp16")];
            tensor<fp16, []> var_772_to_fp16 = const()[name = tensor<string, []>("op_772_to_fp16"), val = tensor<fp16, []>(0x1p-3)];
            tensor<fp16, [1, 1500, 1, 375]> aw_chunk_43_cast_fp16 = mul(x = var_771_cast_fp16, y = var_772_to_fp16)[name = tensor<string, []>("aw_chunk_43_cast_fp16")];
            tensor<string, []> var_775_equation_0 = const()[name = tensor<string, []>("op_775_equation_0"), val = tensor<string, []>("bkhc,bchq->bkhq")];
            tensor<fp16, [1, 1500, 1, 375]> var_775_cast_fp16 = einsum(equation = var_775_equation_0, values = (var_613_cast_fp16, var_413_cast_fp16))[name = tensor<string, []>("op_775_cast_fp16")];
            tensor<fp16, []> var_776_to_fp16 = const()[name = tensor<string, []>("op_776_to_fp16"), val = tensor<fp16, []>(0x1p-3)];
            tensor<fp16, [1, 1500, 1, 375]> aw_chunk_45_cast_fp16 = mul(x = var_775_cast_fp16, y = var_776_to_fp16)[name = tensor<string, []>("aw_chunk_45_cast_fp16")];
            tensor<string, []> var_779_equation_0 = const()[name = tensor<string, []>("op_779_equation_0"), val = tensor<string, []>("bkhc,bchq->bkhq")];
            tensor<fp16, [1, 1500, 1, 375]> var_779_cast_fp16 = einsum(equation = var_779_equation_0, values = (var_613_cast_fp16, var_420_cast_fp16))[name = tensor<string, []>("op_779_cast_fp16")];
            tensor<fp16, []> var_780_to_fp16 = const()[name = tensor<string, []>("op_780_to_fp16"), val = tensor<fp16, []>(0x1p-3)];
            tensor<fp16, [1, 1500, 1, 375]> aw_chunk_47_cast_fp16 = mul(x = var_779_cast_fp16, y = var_780_to_fp16)[name = tensor<string, []>("aw_chunk_47_cast_fp16")];
            tensor<string, []> var_783_equation_0 = const()[name = tensor<string, []>("op_783_equation_0"), val = tensor<string, []>("bkhc,bchq->bkhq")];
            tensor<fp16, [1, 1500, 1, 375]> var_783_cast_fp16 = einsum(equation = var_783_equation_0, values = (var_617_cast_fp16, var_427_cast_fp16))[name = tensor<string, []>("op_783_cast_fp16")];
            tensor<fp16, []> var_784_to_fp16 = const()[name = tensor<string, []>("op_784_to_fp16"), val = tensor<fp16, []>(0x1p-3)];
            tensor<fp16, [1, 1500, 1, 375]> aw_chunk_49_cast_fp16 = mul(x = var_783_cast_fp16, y = var_784_to_fp16)[name = tensor<string, []>("aw_chunk_49_cast_fp16")];
            tensor<string, []> var_787_equation_0 = const()[name = tensor<string, []>("op_787_equation_0"), val = tensor<string, []>("bkhc,bchq->bkhq")];
            tensor<fp16, [1, 1500, 1, 375]> var_787_cast_fp16 = einsum(equation = var_787_equation_0, values = (var_617_cast_fp16, var_434_cast_fp16))[name = tensor<string, []>("op_787_cast_fp16")];
            tensor<fp16, []> var_788_to_fp16 = const()[name = tensor<string, []>("op_788_to_fp16"), val = tensor<fp16, []>(0x1p-3)];
            tensor<fp16, [1, 1500, 1, 375]> aw_chunk_51_cast_fp16 = mul(x = var_787_cast_fp16, y = var_788_to_fp16)[name = tensor<string, []>("aw_chunk_51_cast_fp16")];
            tensor<string, []> var_791_equation_0 = const()[name = tensor<string, []>("op_791_equation_0"), val = tensor<string, []>("bkhc,bchq->bkhq")];
            tensor<fp16, [1, 1500, 1, 375]> var_791_cast_fp16 = einsum(equation = var_791_equation_0, values = (var_617_cast_fp16, var_441_cast_fp16))[name = tensor<string, []>("op_791_cast_fp16")];
            tensor<fp16, []> var_792_to_fp16 = const()[name = tensor<string, []>("op_792_to_fp16"), val = tensor<fp16, []>(0x1p-3)];
            tensor<fp16, [1, 1500, 1, 375]> aw_chunk_53_cast_fp16 = mul(x = var_791_cast_fp16, y = var_792_to_fp16)[name = tensor<string, []>("aw_chunk_53_cast_fp16")];
            tensor<string, []> var_795_equation_0 = const()[name = tensor<string, []>("op_795_equation_0"), val = tensor<string, []>("bkhc,bchq->bkhq")];
            tensor<fp16, [1, 1500, 1, 375]> var_795_cast_fp16 = einsum(equation = var_795_equation_0, values = (var_617_cast_fp16, var_448_cast_fp16))[name = tensor<string, []>("op_795_cast_fp16")];
            tensor<fp16, []> var_796_to_fp16 = const()[name = tensor<string, []>("op_796_to_fp16"), val = tensor<fp16, []>(0x1p-3)];
            tensor<fp16, [1, 1500, 1, 375]> aw_chunk_55_cast_fp16 = mul(x = var_795_cast_fp16, y = var_796_to_fp16)[name = tensor<string, []>("aw_chunk_55_cast_fp16")];
            tensor<string, []> var_799_equation_0 = const()[name = tensor<string, []>("op_799_equation_0"), val = tensor<string, []>("bkhc,bchq->bkhq")];
            tensor<fp16, [1, 1500, 1, 375]> var_799_cast_fp16 = einsum(equation = var_799_equation_0, values = (var_621_cast_fp16, var_455_cast_fp16))[name = tensor<string, []>("op_799_cast_fp16")];
            tensor<fp16, []> var_800_to_fp16 = const()[name = tensor<string, []>("op_800_to_fp16"), val = tensor<fp16, []>(0x1p-3)];
            tensor<fp16, [1, 1500, 1, 375]> aw_chunk_57_cast_fp16 = mul(x = var_799_cast_fp16, y = var_800_to_fp16)[name = tensor<string, []>("aw_chunk_57_cast_fp16")];
            tensor<string, []> var_803_equation_0 = const()[name = tensor<string, []>("op_803_equation_0"), val = tensor<string, []>("bkhc,bchq->bkhq")];
            tensor<fp16, [1, 1500, 1, 375]> var_803_cast_fp16 = einsum(equation = var_803_equation_0, values = (var_621_cast_fp16, var_462_cast_fp16))[name = tensor<string, []>("op_803_cast_fp16")];
            tensor<fp16, []> var_804_to_fp16 = const()[name = tensor<string, []>("op_804_to_fp16"), val = tensor<fp16, []>(0x1p-3)];
            tensor<fp16, [1, 1500, 1, 375]> aw_chunk_59_cast_fp16 = mul(x = var_803_cast_fp16, y = var_804_to_fp16)[name = tensor<string, []>("aw_chunk_59_cast_fp16")];
            tensor<string, []> var_807_equation_0 = const()[name = tensor<string, []>("op_807_equation_0"), val = tensor<string, []>("bkhc,bchq->bkhq")];
            tensor<fp16, [1, 1500, 1, 375]> var_807_cast_fp16 = einsum(equation = var_807_equation_0, values = (var_621_cast_fp16, var_469_cast_fp16))[name = tensor<string, []>("op_807_cast_fp16")];
            tensor<fp16, []> var_808_to_fp16 = const()[name = tensor<string, []>("op_808_to_fp16"), val = tensor<fp16, []>(0x1p-3)];
            tensor<fp16, [1, 1500, 1, 375]> aw_chunk_61_cast_fp16 = mul(x = var_807_cast_fp16, y = var_808_to_fp16)[name = tensor<string, []>("aw_chunk_61_cast_fp16")];
            tensor<string, []> var_811_equation_0 = const()[name = tensor<string, []>("op_811_equation_0"), val = tensor<string, []>("bkhc,bchq->bkhq")];
            tensor<fp16, [1, 1500, 1, 375]> var_811_cast_fp16 = einsum(equation = var_811_equation_0, values = (var_621_cast_fp16, var_476_cast_fp16))[name = tensor<string, []>("op_811_cast_fp16")];
            tensor<fp16, []> var_812_to_fp16 = const()[name = tensor<string, []>("op_812_to_fp16"), val = tensor<fp16, []>(0x1p-3)];
            tensor<fp16, [1, 1500, 1, 375]> aw_chunk_63_cast_fp16 = mul(x = var_811_cast_fp16, y = var_812_to_fp16)[name = tensor<string, []>("aw_chunk_63_cast_fp16")];
            tensor<string, []> var_815_equation_0 = const()[name = tensor<string, []>("op_815_equation_0"), val = tensor<string, []>("bkhc,bchq->bkhq")];
            tensor<fp16, [1, 1500, 1, 375]> var_815_cast_fp16 = einsum(equation = var_815_equation_0, values = (var_625_cast_fp16, var_483_cast_fp16))[name = tensor<string, []>("op_815_cast_fp16")];
            tensor<fp16, []> var_816_to_fp16 = const()[name = tensor<string, []>("op_816_to_fp16"), val = tensor<fp16, []>(0x1p-3)];
            tensor<fp16, [1, 1500, 1, 375]> aw_chunk_65_cast_fp16 = mul(x = var_815_cast_fp16, y = var_816_to_fp16)[name = tensor<string, []>("aw_chunk_65_cast_fp16")];
            tensor<string, []> var_819_equation_0 = const()[name = tensor<string, []>("op_819_equation_0"), val = tensor<string, []>("bkhc,bchq->bkhq")];
            tensor<fp16, [1, 1500, 1, 375]> var_819_cast_fp16 = einsum(equation = var_819_equation_0, values = (var_625_cast_fp16, var_490_cast_fp16))[name = tensor<string, []>("op_819_cast_fp16")];
            tensor<fp16, []> var_820_to_fp16 = const()[name = tensor<string, []>("op_820_to_fp16"), val = tensor<fp16, []>(0x1p-3)];
            tensor<fp16, [1, 1500, 1, 375]> aw_chunk_67_cast_fp16 = mul(x = var_819_cast_fp16, y = var_820_to_fp16)[name = tensor<string, []>("aw_chunk_67_cast_fp16")];
            tensor<string, []> var_823_equation_0 = const()[name = tensor<string, []>("op_823_equation_0"), val = tensor<string, []>("bkhc,bchq->bkhq")];
            tensor<fp16, [1, 1500, 1, 375]> var_823_cast_fp16 = einsum(equation = var_823_equation_0, values = (var_625_cast_fp16, var_497_cast_fp16))[name = tensor<string, []>("op_823_cast_fp16")];
            tensor<fp16, []> var_824_to_fp16 = const()[name = tensor<string, []>("op_824_to_fp16"), val = tensor<fp16, []>(0x1p-3)];
            tensor<fp16, [1, 1500, 1, 375]> aw_chunk_69_cast_fp16 = mul(x = var_823_cast_fp16, y = var_824_to_fp16)[name = tensor<string, []>("aw_chunk_69_cast_fp16")];
            tensor<string, []> var_827_equation_0 = const()[name = tensor<string, []>("op_827_equation_0"), val = tensor<string, []>("bkhc,bchq->bkhq")];
            tensor<fp16, [1, 1500, 1, 375]> var_827_cast_fp16 = einsum(equation = var_827_equation_0, values = (var_625_cast_fp16, var_504_cast_fp16))[name = tensor<string, []>("op_827_cast_fp16")];
            tensor<fp16, []> var_828_to_fp16 = const()[name = tensor<string, []>("op_828_to_fp16"), val = tensor<fp16, []>(0x1p-3)];
            tensor<fp16, [1, 1500, 1, 375]> aw_chunk_71_cast_fp16 = mul(x = var_827_cast_fp16, y = var_828_to_fp16)[name = tensor<string, []>("aw_chunk_71_cast_fp16")];
            tensor<string, []> var_831_equation_0 = const()[name = tensor<string, []>("op_831_equation_0"), val = tensor<string, []>("bkhc,bchq->bkhq")];
            tensor<fp16, [1, 1500, 1, 375]> var_831_cast_fp16 = einsum(equation = var_831_equation_0, values = (var_629_cast_fp16, var_511_cast_fp16))[name = tensor<string, []>("op_831_cast_fp16")];
            tensor<fp16, []> var_832_to_fp16 = const()[name = tensor<string, []>("op_832_to_fp16"), val = tensor<fp16, []>(0x1p-3)];
            tensor<fp16, [1, 1500, 1, 375]> aw_chunk_73_cast_fp16 = mul(x = var_831_cast_fp16, y = var_832_to_fp16)[name = tensor<string, []>("aw_chunk_73_cast_fp16")];
            tensor<string, []> var_835_equation_0 = const()[name = tensor<string, []>("op_835_equation_0"), val = tensor<string, []>("bkhc,bchq->bkhq")];
            tensor<fp16, [1, 1500, 1, 375]> var_835_cast_fp16 = einsum(equation = var_835_equation_0, values = (var_629_cast_fp16, var_518_cast_fp16))[name = tensor<string, []>("op_835_cast_fp16")];
            tensor<fp16, []> var_836_to_fp16 = const()[name = tensor<string, []>("op_836_to_fp16"), val = tensor<fp16, []>(0x1p-3)];
            tensor<fp16, [1, 1500, 1, 375]> aw_chunk_75_cast_fp16 = mul(x = var_835_cast_fp16, y = var_836_to_fp16)[name = tensor<string, []>("aw_chunk_75_cast_fp16")];
            tensor<string, []> var_839_equation_0 = const()[name = tensor<string, []>("op_839_equation_0"), val = tensor<string, []>("bkhc,bchq->bkhq")];
            tensor<fp16, [1, 1500, 1, 375]> var_839_cast_fp16 = einsum(equation = var_839_equation_0, values = (var_629_cast_fp16, var_525_cast_fp16))[name = tensor<string, []>("op_839_cast_fp16")];
            tensor<fp16, []> var_840_to_fp16 = const()[name = tensor<string, []>("op_840_to_fp16"), val = tensor<fp16, []>(0x1p-3)];
            tensor<fp16, [1, 1500, 1, 375]> aw_chunk_77_cast_fp16 = mul(x = var_839_cast_fp16, y = var_840_to_fp16)[name = tensor<string, []>("aw_chunk_77_cast_fp16")];
            tensor<string, []> var_843_equation_0 = const()[name = tensor<string, []>("op_843_equation_0"), val = tensor<string, []>("bkhc,bchq->bkhq")];
            tensor<fp16, [1, 1500, 1, 375]> var_843_cast_fp16 = einsum(equation = var_843_equation_0, values = (var_629_cast_fp16, var_532_cast_fp16))[name = tensor<string, []>("op_843_cast_fp16")];
            tensor<fp16, []> var_844_to_fp16 = const()[name = tensor<string, []>("op_844_to_fp16"), val = tensor<fp16, []>(0x1p-3)];
            tensor<fp16, [1, 1500, 1, 375]> aw_chunk_79_cast_fp16 = mul(x = var_843_cast_fp16, y = var_844_to_fp16)[name = tensor<string, []>("aw_chunk_79_cast_fp16")];
            tensor<string, []> var_847_equation_0 = const()[name = tensor<string, []>("op_847_equation_0"), val = tensor<string, []>("bkhc,bchq->bkhq")];
            tensor<fp16, [1, 1500, 1, 375]> var_847_cast_fp16 = einsum(equation = var_847_equation_0, values = (var_633_cast_fp16, var_539_cast_fp16))[name = tensor<string, []>("op_847_cast_fp16")];
            tensor<fp16, []> var_848_to_fp16 = const()[name = tensor<string, []>("op_848_to_fp16"), val = tensor<fp16, []>(0x1p-3)];
            tensor<fp16, [1, 1500, 1, 375]> aw_chunk_81_cast_fp16 = mul(x = var_847_cast_fp16, y = var_848_to_fp16)[name = tensor<string, []>("aw_chunk_81_cast_fp16")];
            tensor<string, []> var_851_equation_0 = const()[name = tensor<string, []>("op_851_equation_0"), val = tensor<string, []>("bkhc,bchq->bkhq")];
            tensor<fp16, [1, 1500, 1, 375]> var_851_cast_fp16 = einsum(equation = var_851_equation_0, values = (var_633_cast_fp16, var_546_cast_fp16))[name = tensor<string, []>("op_851_cast_fp16")];
            tensor<fp16, []> var_852_to_fp16 = const()[name = tensor<string, []>("op_852_to_fp16"), val = tensor<fp16, []>(0x1p-3)];
            tensor<fp16, [1, 1500, 1, 375]> aw_chunk_83_cast_fp16 = mul(x = var_851_cast_fp16, y = var_852_to_fp16)[name = tensor<string, []>("aw_chunk_83_cast_fp16")];
            tensor<string, []> var_855_equation_0 = const()[name = tensor<string, []>("op_855_equation_0"), val = tensor<string, []>("bkhc,bchq->bkhq")];
            tensor<fp16, [1, 1500, 1, 375]> var_855_cast_fp16 = einsum(equation = var_855_equation_0, values = (var_633_cast_fp16, var_553_cast_fp16))[name = tensor<string, []>("op_855_cast_fp16")];
            tensor<fp16, []> var_856_to_fp16 = const()[name = tensor<string, []>("op_856_to_fp16"), val = tensor<fp16, []>(0x1p-3)];
            tensor<fp16, [1, 1500, 1, 375]> aw_chunk_85_cast_fp16 = mul(x = var_855_cast_fp16, y = var_856_to_fp16)[name = tensor<string, []>("aw_chunk_85_cast_fp16")];
            tensor<string, []> var_859_equation_0 = const()[name = tensor<string, []>("op_859_equation_0"), val = tensor<string, []>("bkhc,bchq->bkhq")];
            tensor<fp16, [1, 1500, 1, 375]> var_859_cast_fp16 = einsum(equation = var_859_equation_0, values = (var_633_cast_fp16, var_560_cast_fp16))[name = tensor<string, []>("op_859_cast_fp16")];
            tensor<fp16, []> var_860_to_fp16 = const()[name = tensor<string, []>("op_860_to_fp16"), val = tensor<fp16, []>(0x1p-3)];
            tensor<fp16, [1, 1500, 1, 375]> aw_chunk_87_cast_fp16 = mul(x = var_859_cast_fp16, y = var_860_to_fp16)[name = tensor<string, []>("aw_chunk_87_cast_fp16")];
            tensor<string, []> var_863_equation_0 = const()[name = tensor<string, []>("op_863_equation_0"), val = tensor<string, []>("bkhc,bchq->bkhq")];
            tensor<fp16, [1, 1500, 1, 375]> var_863_cast_fp16 = einsum(equation = var_863_equation_0, values = (var_637_cast_fp16, var_567_cast_fp16))[name = tensor<string, []>("op_863_cast_fp16")];
            tensor<fp16, []> var_864_to_fp16 = const()[name = tensor<string, []>("op_864_to_fp16"), val = tensor<fp16, []>(0x1p-3)];
            tensor<fp16, [1, 1500, 1, 375]> aw_chunk_89_cast_fp16 = mul(x = var_863_cast_fp16, y = var_864_to_fp16)[name = tensor<string, []>("aw_chunk_89_cast_fp16")];
            tensor<string, []> var_867_equation_0 = const()[name = tensor<string, []>("op_867_equation_0"), val = tensor<string, []>("bkhc,bchq->bkhq")];
            tensor<fp16, [1, 1500, 1, 375]> var_867_cast_fp16 = einsum(equation = var_867_equation_0, values = (var_637_cast_fp16, var_574_cast_fp16))[name = tensor<string, []>("op_867_cast_fp16")];
            tensor<fp16, []> var_868_to_fp16 = const()[name = tensor<string, []>("op_868_to_fp16"), val = tensor<fp16, []>(0x1p-3)];
            tensor<fp16, [1, 1500, 1, 375]> aw_chunk_91_cast_fp16 = mul(x = var_867_cast_fp16, y = var_868_to_fp16)[name = tensor<string, []>("aw_chunk_91_cast_fp16")];
            tensor<string, []> var_871_equation_0 = const()[name = tensor<string, []>("op_871_equation_0"), val = tensor<string, []>("bkhc,bchq->bkhq")];
            tensor<fp16, [1, 1500, 1, 375]> var_871_cast_fp16 = einsum(equation = var_871_equation_0, values = (var_637_cast_fp16, var_581_cast_fp16))[name = tensor<string, []>("op_871_cast_fp16")];
            tensor<fp16, []> var_872_to_fp16 = const()[name = tensor<string, []>("op_872_to_fp16"), val = tensor<fp16, []>(0x1p-3)];
            tensor<fp16, [1, 1500, 1, 375]> aw_chunk_93_cast_fp16 = mul(x = var_871_cast_fp16, y = var_872_to_fp16)[name = tensor<string, []>("aw_chunk_93_cast_fp16")];
            tensor<string, []> var_875_equation_0 = const()[name = tensor<string, []>("op_875_equation_0"), val = tensor<string, []>("bkhc,bchq->bkhq")];
            tensor<fp16, [1, 1500, 1, 375]> var_875_cast_fp16 = einsum(equation = var_875_equation_0, values = (var_637_cast_fp16, var_588_cast_fp16))[name = tensor<string, []>("op_875_cast_fp16")];
            tensor<fp16, []> var_876_to_fp16 = const()[name = tensor<string, []>("op_876_to_fp16"), val = tensor<fp16, []>(0x1p-3)];
            tensor<fp16, [1, 1500, 1, 375]> aw_chunk_95_cast_fp16 = mul(x = var_875_cast_fp16, y = var_876_to_fp16)[name = tensor<string, []>("aw_chunk_95_cast_fp16")];
            tensor<fp16, [1, 1500, 1, 375]> var_878_cast_fp16 = softmax(axis = var_151, x = aw_chunk_1_cast_fp16)[name = tensor<string, []>("op_878_cast_fp16")];
            tensor<fp16, [1, 1500, 1, 375]> var_879_cast_fp16 = softmax(axis = var_151, x = aw_chunk_3_cast_fp16)[name = tensor<string, []>("op_879_cast_fp16")];
            tensor<fp16, [1, 1500, 1, 375]> var_880_cast_fp16 = softmax(axis = var_151, x = aw_chunk_5_cast_fp16)[name = tensor<string, []>("op_880_cast_fp16")];
            tensor<fp16, [1, 1500, 1, 375]> var_881_cast_fp16 = softmax(axis = var_151, x = aw_chunk_7_cast_fp16)[name = tensor<string, []>("op_881_cast_fp16")];
            tensor<fp16, [1, 1500, 1, 375]> var_882_cast_fp16 = softmax(axis = var_151, x = aw_chunk_9_cast_fp16)[name = tensor<string, []>("op_882_cast_fp16")];
            tensor<fp16, [1, 1500, 1, 375]> var_883_cast_fp16 = softmax(axis = var_151, x = aw_chunk_11_cast_fp16)[name = tensor<string, []>("op_883_cast_fp16")];
            tensor<fp16, [1, 1500, 1, 375]> var_884_cast_fp16 = softmax(axis = var_151, x = aw_chunk_13_cast_fp16)[name = tensor<string, []>("op_884_cast_fp16")];
            tensor<fp16, [1, 1500, 1, 375]> var_885_cast_fp16 = softmax(axis = var_151, x = aw_chunk_15_cast_fp16)[name = tensor<string, []>("op_885_cast_fp16")];
            tensor<fp16, [1, 1500, 1, 375]> var_886_cast_fp16 = softmax(axis = var_151, x = aw_chunk_17_cast_fp16)[name = tensor<string, []>("op_886_cast_fp16")];
            tensor<fp16, [1, 1500, 1, 375]> var_887_cast_fp16 = softmax(axis = var_151, x = aw_chunk_19_cast_fp16)[name = tensor<string, []>("op_887_cast_fp16")];
            tensor<fp16, [1, 1500, 1, 375]> var_888_cast_fp16 = softmax(axis = var_151, x = aw_chunk_21_cast_fp16)[name = tensor<string, []>("op_888_cast_fp16")];
            tensor<fp16, [1, 1500, 1, 375]> var_889_cast_fp16 = softmax(axis = var_151, x = aw_chunk_23_cast_fp16)[name = tensor<string, []>("op_889_cast_fp16")];
            tensor<fp16, [1, 1500, 1, 375]> var_890_cast_fp16 = softmax(axis = var_151, x = aw_chunk_25_cast_fp16)[name = tensor<string, []>("op_890_cast_fp16")];
            tensor<fp16, [1, 1500, 1, 375]> var_891_cast_fp16 = softmax(axis = var_151, x = aw_chunk_27_cast_fp16)[name = tensor<string, []>("op_891_cast_fp16")];
            tensor<fp16, [1, 1500, 1, 375]> var_892_cast_fp16 = softmax(axis = var_151, x = aw_chunk_29_cast_fp16)[name = tensor<string, []>("op_892_cast_fp16")];
            tensor<fp16, [1, 1500, 1, 375]> var_893_cast_fp16 = softmax(axis = var_151, x = aw_chunk_31_cast_fp16)[name = tensor<string, []>("op_893_cast_fp16")];
            tensor<fp16, [1, 1500, 1, 375]> var_894_cast_fp16 = softmax(axis = var_151, x = aw_chunk_33_cast_fp16)[name = tensor<string, []>("op_894_cast_fp16")];
            tensor<fp16, [1, 1500, 1, 375]> var_895_cast_fp16 = softmax(axis = var_151, x = aw_chunk_35_cast_fp16)[name = tensor<string, []>("op_895_cast_fp16")];
            tensor<fp16, [1, 1500, 1, 375]> var_896_cast_fp16 = softmax(axis = var_151, x = aw_chunk_37_cast_fp16)[name = tensor<string, []>("op_896_cast_fp16")];
            tensor<fp16, [1, 1500, 1, 375]> var_897_cast_fp16 = softmax(axis = var_151, x = aw_chunk_39_cast_fp16)[name = tensor<string, []>("op_897_cast_fp16")];
            tensor<fp16, [1, 1500, 1, 375]> var_898_cast_fp16 = softmax(axis = var_151, x = aw_chunk_41_cast_fp16)[name = tensor<string, []>("op_898_cast_fp16")];
            tensor<fp16, [1, 1500, 1, 375]> var_899_cast_fp16 = softmax(axis = var_151, x = aw_chunk_43_cast_fp16)[name = tensor<string, []>("op_899_cast_fp16")];
            tensor<fp16, [1, 1500, 1, 375]> var_900_cast_fp16 = softmax(axis = var_151, x = aw_chunk_45_cast_fp16)[name = tensor<string, []>("op_900_cast_fp16")];
            tensor<fp16, [1, 1500, 1, 375]> var_901_cast_fp16 = softmax(axis = var_151, x = aw_chunk_47_cast_fp16)[name = tensor<string, []>("op_901_cast_fp16")];
            tensor<fp16, [1, 1500, 1, 375]> var_902_cast_fp16 = softmax(axis = var_151, x = aw_chunk_49_cast_fp16)[name = tensor<string, []>("op_902_cast_fp16")];
            tensor<fp16, [1, 1500, 1, 375]> var_903_cast_fp16 = softmax(axis = var_151, x = aw_chunk_51_cast_fp16)[name = tensor<string, []>("op_903_cast_fp16")];
            tensor<fp16, [1, 1500, 1, 375]> var_904_cast_fp16 = softmax(axis = var_151, x = aw_chunk_53_cast_fp16)[name = tensor<string, []>("op_904_cast_fp16")];
            tensor<fp16, [1, 1500, 1, 375]> var_905_cast_fp16 = softmax(axis = var_151, x = aw_chunk_55_cast_fp16)[name = tensor<string, []>("op_905_cast_fp16")];
            tensor<fp16, [1, 1500, 1, 375]> var_906_cast_fp16 = softmax(axis = var_151, x = aw_chunk_57_cast_fp16)[name = tensor<string, []>("op_906_cast_fp16")];
            tensor<fp16, [1, 1500, 1, 375]> var_907_cast_fp16 = softmax(axis = var_151, x = aw_chunk_59_cast_fp16)[name = tensor<string, []>("op_907_cast_fp16")];
            tensor<fp16, [1, 1500, 1, 375]> var_908_cast_fp16 = softmax(axis = var_151, x = aw_chunk_61_cast_fp16)[name = tensor<string, []>("op_908_cast_fp16")];
            tensor<fp16, [1, 1500, 1, 375]> var_909_cast_fp16 = softmax(axis = var_151, x = aw_chunk_63_cast_fp16)[name = tensor<string, []>("op_909_cast_fp16")];
            tensor<fp16, [1, 1500, 1, 375]> var_910_cast_fp16 = softmax(axis = var_151, x = aw_chunk_65_cast_fp16)[name = tensor<string, []>("op_910_cast_fp16")];
            tensor<fp16, [1, 1500, 1, 375]> var_911_cast_fp16 = softmax(axis = var_151, x = aw_chunk_67_cast_fp16)[name = tensor<string, []>("op_911_cast_fp16")];
            tensor<fp16, [1, 1500, 1, 375]> var_912_cast_fp16 = softmax(axis = var_151, x = aw_chunk_69_cast_fp16)[name = tensor<string, []>("op_912_cast_fp16")];
            tensor<fp16, [1, 1500, 1, 375]> var_913_cast_fp16 = softmax(axis = var_151, x = aw_chunk_71_cast_fp16)[name = tensor<string, []>("op_913_cast_fp16")];
            tensor<fp16, [1, 1500, 1, 375]> var_914_cast_fp16 = softmax(axis = var_151, x = aw_chunk_73_cast_fp16)[name = tensor<string, []>("op_914_cast_fp16")];
            tensor<fp16, [1, 1500, 1, 375]> var_915_cast_fp16 = softmax(axis = var_151, x = aw_chunk_75_cast_fp16)[name = tensor<string, []>("op_915_cast_fp16")];
            tensor<fp16, [1, 1500, 1, 375]> var_916_cast_fp16 = softmax(axis = var_151, x = aw_chunk_77_cast_fp16)[name = tensor<string, []>("op_916_cast_fp16")];
            tensor<fp16, [1, 1500, 1, 375]> var_917_cast_fp16 = softmax(axis = var_151, x = aw_chunk_79_cast_fp16)[name = tensor<string, []>("op_917_cast_fp16")];
            tensor<fp16, [1, 1500, 1, 375]> var_918_cast_fp16 = softmax(axis = var_151, x = aw_chunk_81_cast_fp16)[name = tensor<string, []>("op_918_cast_fp16")];
            tensor<fp16, [1, 1500, 1, 375]> var_919_cast_fp16 = softmax(axis = var_151, x = aw_chunk_83_cast_fp16)[name = tensor<string, []>("op_919_cast_fp16")];
            tensor<fp16, [1, 1500, 1, 375]> var_920_cast_fp16 = softmax(axis = var_151, x = aw_chunk_85_cast_fp16)[name = tensor<string, []>("op_920_cast_fp16")];
            tensor<fp16, [1, 1500, 1, 375]> var_921_cast_fp16 = softmax(axis = var_151, x = aw_chunk_87_cast_fp16)[name = tensor<string, []>("op_921_cast_fp16")];
            tensor<fp16, [1, 1500, 1, 375]> var_922_cast_fp16 = softmax(axis = var_151, x = aw_chunk_89_cast_fp16)[name = tensor<string, []>("op_922_cast_fp16")];
            tensor<fp16, [1, 1500, 1, 375]> var_923_cast_fp16 = softmax(axis = var_151, x = aw_chunk_91_cast_fp16)[name = tensor<string, []>("op_923_cast_fp16")];
            tensor<fp16, [1, 1500, 1, 375]> var_924_cast_fp16 = softmax(axis = var_151, x = aw_chunk_93_cast_fp16)[name = tensor<string, []>("op_924_cast_fp16")];
            tensor<fp16, [1, 1500, 1, 375]> var_925_cast_fp16 = softmax(axis = var_151, x = aw_chunk_95_cast_fp16)[name = tensor<string, []>("op_925_cast_fp16")];
            tensor<string, []> var_927_equation_0 = const()[name = tensor<string, []>("op_927_equation_0"), val = tensor<string, []>("bchk,bkhq->bchq")];
            tensor<fp16, [1, 64, 1, 375]> var_927_cast_fp16 = einsum(equation = var_927_equation_0, values = (var_639_cast_fp16, var_878_cast_fp16))[name = tensor<string, []>("op_927_cast_fp16")];
            tensor<string, []> var_929_equation_0 = const()[name = tensor<string, []>("op_929_equation_0"), val = tensor<string, []>("bchk,bkhq->bchq")];
            tensor<fp16, [1, 64, 1, 375]> var_929_cast_fp16 = einsum(equation = var_929_equation_0, values = (var_639_cast_fp16, var_879_cast_fp16))[name = tensor<string, []>("op_929_cast_fp16")];
            tensor<string, []> var_931_equation_0 = const()[name = tensor<string, []>("op_931_equation_0"), val = tensor<string, []>("bchk,bkhq->bchq")];
            tensor<fp16, [1, 64, 1, 375]> var_931_cast_fp16 = einsum(equation = var_931_equation_0, values = (var_639_cast_fp16, var_880_cast_fp16))[name = tensor<string, []>("op_931_cast_fp16")];
            tensor<string, []> var_933_equation_0 = const()[name = tensor<string, []>("op_933_equation_0"), val = tensor<string, []>("bchk,bkhq->bchq")];
            tensor<fp16, [1, 64, 1, 375]> var_933_cast_fp16 = einsum(equation = var_933_equation_0, values = (var_639_cast_fp16, var_881_cast_fp16))[name = tensor<string, []>("op_933_cast_fp16")];
            tensor<string, []> var_935_equation_0 = const()[name = tensor<string, []>("op_935_equation_0"), val = tensor<string, []>("bchk,bkhq->bchq")];
            tensor<fp16, [1, 64, 1, 375]> var_935_cast_fp16 = einsum(equation = var_935_equation_0, values = (var_643_cast_fp16, var_882_cast_fp16))[name = tensor<string, []>("op_935_cast_fp16")];
            tensor<string, []> var_937_equation_0 = const()[name = tensor<string, []>("op_937_equation_0"), val = tensor<string, []>("bchk,bkhq->bchq")];
            tensor<fp16, [1, 64, 1, 375]> var_937_cast_fp16 = einsum(equation = var_937_equation_0, values = (var_643_cast_fp16, var_883_cast_fp16))[name = tensor<string, []>("op_937_cast_fp16")];
            tensor<string, []> var_939_equation_0 = const()[name = tensor<string, []>("op_939_equation_0"), val = tensor<string, []>("bchk,bkhq->bchq")];
            tensor<fp16, [1, 64, 1, 375]> var_939_cast_fp16 = einsum(equation = var_939_equation_0, values = (var_643_cast_fp16, var_884_cast_fp16))[name = tensor<string, []>("op_939_cast_fp16")];
            tensor<string, []> var_941_equation_0 = const()[name = tensor<string, []>("op_941_equation_0"), val = tensor<string, []>("bchk,bkhq->bchq")];
            tensor<fp16, [1, 64, 1, 375]> var_941_cast_fp16 = einsum(equation = var_941_equation_0, values = (var_643_cast_fp16, var_885_cast_fp16))[name = tensor<string, []>("op_941_cast_fp16")];
            tensor<string, []> var_943_equation_0 = const()[name = tensor<string, []>("op_943_equation_0"), val = tensor<string, []>("bchk,bkhq->bchq")];
            tensor<fp16, [1, 64, 1, 375]> var_943_cast_fp16 = einsum(equation = var_943_equation_0, values = (var_647_cast_fp16, var_886_cast_fp16))[name = tensor<string, []>("op_943_cast_fp16")];
            tensor<string, []> var_945_equation_0 = const()[name = tensor<string, []>("op_945_equation_0"), val = tensor<string, []>("bchk,bkhq->bchq")];
            tensor<fp16, [1, 64, 1, 375]> var_945_cast_fp16 = einsum(equation = var_945_equation_0, values = (var_647_cast_fp16, var_887_cast_fp16))[name = tensor<string, []>("op_945_cast_fp16")];
            tensor<string, []> var_947_equation_0 = const()[name = tensor<string, []>("op_947_equation_0"), val = tensor<string, []>("bchk,bkhq->bchq")];
            tensor<fp16, [1, 64, 1, 375]> var_947_cast_fp16 = einsum(equation = var_947_equation_0, values = (var_647_cast_fp16, var_888_cast_fp16))[name = tensor<string, []>("op_947_cast_fp16")];
            tensor<string, []> var_949_equation_0 = const()[name = tensor<string, []>("op_949_equation_0"), val = tensor<string, []>("bchk,bkhq->bchq")];
            tensor<fp16, [1, 64, 1, 375]> var_949_cast_fp16 = einsum(equation = var_949_equation_0, values = (var_647_cast_fp16, var_889_cast_fp16))[name = tensor<string, []>("op_949_cast_fp16")];
            tensor<string, []> var_951_equation_0 = const()[name = tensor<string, []>("op_951_equation_0"), val = tensor<string, []>("bchk,bkhq->bchq")];
            tensor<fp16, [1, 64, 1, 375]> var_951_cast_fp16 = einsum(equation = var_951_equation_0, values = (var_651_cast_fp16, var_890_cast_fp16))[name = tensor<string, []>("op_951_cast_fp16")];
            tensor<string, []> var_953_equation_0 = const()[name = tensor<string, []>("op_953_equation_0"), val = tensor<string, []>("bchk,bkhq->bchq")];
            tensor<fp16, [1, 64, 1, 375]> var_953_cast_fp16 = einsum(equation = var_953_equation_0, values = (var_651_cast_fp16, var_891_cast_fp16))[name = tensor<string, []>("op_953_cast_fp16")];
            tensor<string, []> var_955_equation_0 = const()[name = tensor<string, []>("op_955_equation_0"), val = tensor<string, []>("bchk,bkhq->bchq")];
            tensor<fp16, [1, 64, 1, 375]> var_955_cast_fp16 = einsum(equation = var_955_equation_0, values = (var_651_cast_fp16, var_892_cast_fp16))[name = tensor<string, []>("op_955_cast_fp16")];
            tensor<string, []> var_957_equation_0 = const()[name = tensor<string, []>("op_957_equation_0"), val = tensor<string, []>("bchk,bkhq->bchq")];
            tensor<fp16, [1, 64, 1, 375]> var_957_cast_fp16 = einsum(equation = var_957_equation_0, values = (var_651_cast_fp16, var_893_cast_fp16))[name = tensor<string, []>("op_957_cast_fp16")];
            tensor<string, []> var_959_equation_0 = const()[name = tensor<string, []>("op_959_equation_0"), val = tensor<string, []>("bchk,bkhq->bchq")];
            tensor<fp16, [1, 64, 1, 375]> var_959_cast_fp16 = einsum(equation = var_959_equation_0, values = (var_655_cast_fp16, var_894_cast_fp16))[name = tensor<string, []>("op_959_cast_fp16")];
            tensor<string, []> var_961_equation_0 = const()[name = tensor<string, []>("op_961_equation_0"), val = tensor<string, []>("bchk,bkhq->bchq")];
            tensor<fp16, [1, 64, 1, 375]> var_961_cast_fp16 = einsum(equation = var_961_equation_0, values = (var_655_cast_fp16, var_895_cast_fp16))[name = tensor<string, []>("op_961_cast_fp16")];
            tensor<string, []> var_963_equation_0 = const()[name = tensor<string, []>("op_963_equation_0"), val = tensor<string, []>("bchk,bkhq->bchq")];
            tensor<fp16, [1, 64, 1, 375]> var_963_cast_fp16 = einsum(equation = var_963_equation_0, values = (var_655_cast_fp16, var_896_cast_fp16))[name = tensor<string, []>("op_963_cast_fp16")];
            tensor<string, []> var_965_equation_0 = const()[name = tensor<string, []>("op_965_equation_0"), val = tensor<string, []>("bchk,bkhq->bchq")];
            tensor<fp16, [1, 64, 1, 375]> var_965_cast_fp16 = einsum(equation = var_965_equation_0, values = (var_655_cast_fp16, var_897_cast_fp16))[name = tensor<string, []>("op_965_cast_fp16")];
            tensor<string, []> var_967_equation_0 = const()[name = tensor<string, []>("op_967_equation_0"), val = tensor<string, []>("bchk,bkhq->bchq")];
            tensor<fp16, [1, 64, 1, 375]> var_967_cast_fp16 = einsum(equation = var_967_equation_0, values = (var_659_cast_fp16, var_898_cast_fp16))[name = tensor<string, []>("op_967_cast_fp16")];
            tensor<string, []> var_969_equation_0 = const()[name = tensor<string, []>("op_969_equation_0"), val = tensor<string, []>("bchk,bkhq->bchq")];
            tensor<fp16, [1, 64, 1, 375]> var_969_cast_fp16 = einsum(equation = var_969_equation_0, values = (var_659_cast_fp16, var_899_cast_fp16))[name = tensor<string, []>("op_969_cast_fp16")];
            tensor<string, []> var_971_equation_0 = const()[name = tensor<string, []>("op_971_equation_0"), val = tensor<string, []>("bchk,bkhq->bchq")];
            tensor<fp16, [1, 64, 1, 375]> var_971_cast_fp16 = einsum(equation = var_971_equation_0, values = (var_659_cast_fp16, var_900_cast_fp16))[name = tensor<string, []>("op_971_cast_fp16")];
            tensor<string, []> var_973_equation_0 = const()[name = tensor<string, []>("op_973_equation_0"), val = tensor<string, []>("bchk,bkhq->bchq")];
            tensor<fp16, [1, 64, 1, 375]> var_973_cast_fp16 = einsum(equation = var_973_equation_0, values = (var_659_cast_fp16, var_901_cast_fp16))[name = tensor<string, []>("op_973_cast_fp16")];
            tensor<string, []> var_975_equation_0 = const()[name = tensor<string, []>("op_975_equation_0"), val = tensor<string, []>("bchk,bkhq->bchq")];
            tensor<fp16, [1, 64, 1, 375]> var_975_cast_fp16 = einsum(equation = var_975_equation_0, values = (var_663_cast_fp16, var_902_cast_fp16))[name = tensor<string, []>("op_975_cast_fp16")];
            tensor<string, []> var_977_equation_0 = const()[name = tensor<string, []>("op_977_equation_0"), val = tensor<string, []>("bchk,bkhq->bchq")];
            tensor<fp16, [1, 64, 1, 375]> var_977_cast_fp16 = einsum(equation = var_977_equation_0, values = (var_663_cast_fp16, var_903_cast_fp16))[name = tensor<string, []>("op_977_cast_fp16")];
            tensor<string, []> var_979_equation_0 = const()[name = tensor<string, []>("op_979_equation_0"), val = tensor<string, []>("bchk,bkhq->bchq")];
            tensor<fp16, [1, 64, 1, 375]> var_979_cast_fp16 = einsum(equation = var_979_equation_0, values = (var_663_cast_fp16, var_904_cast_fp16))[name = tensor<string, []>("op_979_cast_fp16")];
            tensor<string, []> var_981_equation_0 = const()[name = tensor<string, []>("op_981_equation_0"), val = tensor<string, []>("bchk,bkhq->bchq")];
            tensor<fp16, [1, 64, 1, 375]> var_981_cast_fp16 = einsum(equation = var_981_equation_0, values = (var_663_cast_fp16, var_905_cast_fp16))[name = tensor<string, []>("op_981_cast_fp16")];
            tensor<string, []> var_983_equation_0 = const()[name = tensor<string, []>("op_983_equation_0"), val = tensor<string, []>("bchk,bkhq->bchq")];
            tensor<fp16, [1, 64, 1, 375]> var_983_cast_fp16 = einsum(equation = var_983_equation_0, values = (var_667_cast_fp16, var_906_cast_fp16))[name = tensor<string, []>("op_983_cast_fp16")];
            tensor<string, []> var_985_equation_0 = const()[name = tensor<string, []>("op_985_equation_0"), val = tensor<string, []>("bchk,bkhq->bchq")];
            tensor<fp16, [1, 64, 1, 375]> var_985_cast_fp16 = einsum(equation = var_985_equation_0, values = (var_667_cast_fp16, var_907_cast_fp16))[name = tensor<string, []>("op_985_cast_fp16")];
            tensor<string, []> var_987_equation_0 = const()[name = tensor<string, []>("op_987_equation_0"), val = tensor<string, []>("bchk,bkhq->bchq")];
            tensor<fp16, [1, 64, 1, 375]> var_987_cast_fp16 = einsum(equation = var_987_equation_0, values = (var_667_cast_fp16, var_908_cast_fp16))[name = tensor<string, []>("op_987_cast_fp16")];
            tensor<string, []> var_989_equation_0 = const()[name = tensor<string, []>("op_989_equation_0"), val = tensor<string, []>("bchk,bkhq->bchq")];
            tensor<fp16, [1, 64, 1, 375]> var_989_cast_fp16 = einsum(equation = var_989_equation_0, values = (var_667_cast_fp16, var_909_cast_fp16))[name = tensor<string, []>("op_989_cast_fp16")];
            tensor<string, []> var_991_equation_0 = const()[name = tensor<string, []>("op_991_equation_0"), val = tensor<string, []>("bchk,bkhq->bchq")];
            tensor<fp16, [1, 64, 1, 375]> var_991_cast_fp16 = einsum(equation = var_991_equation_0, values = (var_671_cast_fp16, var_910_cast_fp16))[name = tensor<string, []>("op_991_cast_fp16")];
            tensor<string, []> var_993_equation_0 = const()[name = tensor<string, []>("op_993_equation_0"), val = tensor<string, []>("bchk,bkhq->bchq")];
            tensor<fp16, [1, 64, 1, 375]> var_993_cast_fp16 = einsum(equation = var_993_equation_0, values = (var_671_cast_fp16, var_911_cast_fp16))[name = tensor<string, []>("op_993_cast_fp16")];
            tensor<string, []> var_995_equation_0 = const()[name = tensor<string, []>("op_995_equation_0"), val = tensor<string, []>("bchk,bkhq->bchq")];
            tensor<fp16, [1, 64, 1, 375]> var_995_cast_fp16 = einsum(equation = var_995_equation_0, values = (var_671_cast_fp16, var_912_cast_fp16))[name = tensor<string, []>("op_995_cast_fp16")];
            tensor<string, []> var_997_equation_0 = const()[name = tensor<string, []>("op_997_equation_0"), val = tensor<string, []>("bchk,bkhq->bchq")];
            tensor<fp16, [1, 64, 1, 375]> var_997_cast_fp16 = einsum(equation = var_997_equation_0, values = (var_671_cast_fp16, var_913_cast_fp16))[name = tensor<string, []>("op_997_cast_fp16")];
            tensor<string, []> var_999_equation_0 = const()[name = tensor<string, []>("op_999_equation_0"), val = tensor<string, []>("bchk,bkhq->bchq")];
            tensor<fp16, [1, 64, 1, 375]> var_999_cast_fp16 = einsum(equation = var_999_equation_0, values = (var_675_cast_fp16, var_914_cast_fp16))[name = tensor<string, []>("op_999_cast_fp16")];
            tensor<string, []> var_1001_equation_0 = const()[name = tensor<string, []>("op_1001_equation_0"), val = tensor<string, []>("bchk,bkhq->bchq")];
            tensor<fp16, [1, 64, 1, 375]> var_1001_cast_fp16 = einsum(equation = var_1001_equation_0, values = (var_675_cast_fp16, var_915_cast_fp16))[name = tensor<string, []>("op_1001_cast_fp16")];
            tensor<string, []> var_1003_equation_0 = const()[name = tensor<string, []>("op_1003_equation_0"), val = tensor<string, []>("bchk,bkhq->bchq")];
            tensor<fp16, [1, 64, 1, 375]> var_1003_cast_fp16 = einsum(equation = var_1003_equation_0, values = (var_675_cast_fp16, var_916_cast_fp16))[name = tensor<string, []>("op_1003_cast_fp16")];
            tensor<string, []> var_1005_equation_0 = const()[name = tensor<string, []>("op_1005_equation_0"), val = tensor<string, []>("bchk,bkhq->bchq")];
            tensor<fp16, [1, 64, 1, 375]> var_1005_cast_fp16 = einsum(equation = var_1005_equation_0, values = (var_675_cast_fp16, var_917_cast_fp16))[name = tensor<string, []>("op_1005_cast_fp16")];
            tensor<string, []> var_1007_equation_0 = const()[name = tensor<string, []>("op_1007_equation_0"), val = tensor<string, []>("bchk,bkhq->bchq")];
            tensor<fp16, [1, 64, 1, 375]> var_1007_cast_fp16 = einsum(equation = var_1007_equation_0, values = (var_679_cast_fp16, var_918_cast_fp16))[name = tensor<string, []>("op_1007_cast_fp16")];
            tensor<string, []> var_1009_equation_0 = const()[name = tensor<string, []>("op_1009_equation_0"), val = tensor<string, []>("bchk,bkhq->bchq")];
            tensor<fp16, [1, 64, 1, 375]> var_1009_cast_fp16 = einsum(equation = var_1009_equation_0, values = (var_679_cast_fp16, var_919_cast_fp16))[name = tensor<string, []>("op_1009_cast_fp16")];
            tensor<string, []> var_1011_equation_0 = const()[name = tensor<string, []>("op_1011_equation_0"), val = tensor<string, []>("bchk,bkhq->bchq")];
            tensor<fp16, [1, 64, 1, 375]> var_1011_cast_fp16 = einsum(equation = var_1011_equation_0, values = (var_679_cast_fp16, var_920_cast_fp16))[name = tensor<string, []>("op_1011_cast_fp16")];
            tensor<string, []> var_1013_equation_0 = const()[name = tensor<string, []>("op_1013_equation_0"), val = tensor<string, []>("bchk,bkhq->bchq")];
            tensor<fp16, [1, 64, 1, 375]> var_1013_cast_fp16 = einsum(equation = var_1013_equation_0, values = (var_679_cast_fp16, var_921_cast_fp16))[name = tensor<string, []>("op_1013_cast_fp16")];
            tensor<string, []> var_1015_equation_0 = const()[name = tensor<string, []>("op_1015_equation_0"), val = tensor<string, []>("bchk,bkhq->bchq")];
            tensor<fp16, [1, 64, 1, 375]> var_1015_cast_fp16 = einsum(equation = var_1015_equation_0, values = (var_683_cast_fp16, var_922_cast_fp16))[name = tensor<string, []>("op_1015_cast_fp16")];
            tensor<string, []> var_1017_equation_0 = const()[name = tensor<string, []>("op_1017_equation_0"), val = tensor<string, []>("bchk,bkhq->bchq")];
            tensor<fp16, [1, 64, 1, 375]> var_1017_cast_fp16 = einsum(equation = var_1017_equation_0, values = (var_683_cast_fp16, var_923_cast_fp16))[name = tensor<string, []>("op_1017_cast_fp16")];
            tensor<string, []> var_1019_equation_0 = const()[name = tensor<string, []>("op_1019_equation_0"), val = tensor<string, []>("bchk,bkhq->bchq")];
            tensor<fp16, [1, 64, 1, 375]> var_1019_cast_fp16 = einsum(equation = var_1019_equation_0, values = (var_683_cast_fp16, var_924_cast_fp16))[name = tensor<string, []>("op_1019_cast_fp16")];
            tensor<string, []> var_1021_equation_0 = const()[name = tensor<string, []>("op_1021_equation_0"), val = tensor<string, []>("bchk,bkhq->bchq")];
            tensor<fp16, [1, 64, 1, 375]> var_1021_cast_fp16 = einsum(equation = var_1021_equation_0, values = (var_683_cast_fp16, var_925_cast_fp16))[name = tensor<string, []>("op_1021_cast_fp16")];
            tensor<bool, []> var_1023_interleave_0 = const()[name = tensor<string, []>("op_1023_interleave_0"), val = tensor<bool, []>(false)];
            tensor<fp16, [1, 64, 1, 1500]> var_1023_cast_fp16 = concat(axis = var_134, interleave = var_1023_interleave_0, values = (var_927_cast_fp16, var_929_cast_fp16, var_931_cast_fp16, var_933_cast_fp16))[name = tensor<string, []>("op_1023_cast_fp16")];
            tensor<bool, []> var_1025_interleave_0 = const()[name = tensor<string, []>("op_1025_interleave_0"), val = tensor<bool, []>(false)];
            tensor<fp16, [1, 64, 1, 1500]> var_1025_cast_fp16 = concat(axis = var_134, interleave = var_1025_interleave_0, values = (var_935_cast_fp16, var_937_cast_fp16, var_939_cast_fp16, var_941_cast_fp16))[name = tensor<string, []>("op_1025_cast_fp16")];
            tensor<bool, []> var_1027_interleave_0 = const()[name = tensor<string, []>("op_1027_interleave_0"), val = tensor<bool, []>(false)];
            tensor<fp16, [1, 64, 1, 1500]> var_1027_cast_fp16 = concat(axis = var_134, interleave = var_1027_interleave_0, values = (var_943_cast_fp16, var_945_cast_fp16, var_947_cast_fp16, var_949_cast_fp16))[name = tensor<string, []>("op_1027_cast_fp16")];
            tensor<bool, []> var_1029_interleave_0 = const()[name = tensor<string, []>("op_1029_interleave_0"), val = tensor<bool, []>(false)];
            tensor<fp16, [1, 64, 1, 1500]> var_1029_cast_fp16 = concat(axis = var_134, interleave = var_1029_interleave_0, values = (var_951_cast_fp16, var_953_cast_fp16, var_955_cast_fp16, var_957_cast_fp16))[name = tensor<string, []>("op_1029_cast_fp16")];
            tensor<bool, []> var_1031_interleave_0 = const()[name = tensor<string, []>("op_1031_interleave_0"), val = tensor<bool, []>(false)];
            tensor<fp16, [1, 64, 1, 1500]> var_1031_cast_fp16 = concat(axis = var_134, interleave = var_1031_interleave_0, values = (var_959_cast_fp16, var_961_cast_fp16, var_963_cast_fp16, var_965_cast_fp16))[name = tensor<string, []>("op_1031_cast_fp16")];
            tensor<bool, []> var_1033_interleave_0 = const()[name = tensor<string, []>("op_1033_interleave_0"), val = tensor<bool, []>(false)];
            tensor<fp16, [1, 64, 1, 1500]> var_1033_cast_fp16 = concat(axis = var_134, interleave = var_1033_interleave_0, values = (var_967_cast_fp16, var_969_cast_fp16, var_971_cast_fp16, var_973_cast_fp16))[name = tensor<string, []>("op_1033_cast_fp16")];
            tensor<bool, []> var_1035_interleave_0 = const()[name = tensor<string, []>("op_1035_interleave_0"), val = tensor<bool, []>(false)];
            tensor<fp16, [1, 64, 1, 1500]> var_1035_cast_fp16 = concat(axis = var_134, interleave = var_1035_interleave_0, values = (var_975_cast_fp16, var_977_cast_fp16, var_979_cast_fp16, var_981_cast_fp16))[name = tensor<string, []>("op_1035_cast_fp16")];
            tensor<bool, []> var_1037_interleave_0 = const()[name = tensor<string, []>("op_1037_interleave_0"), val = tensor<bool, []>(false)];
            tensor<fp16, [1, 64, 1, 1500]> var_1037_cast_fp16 = concat(axis = var_134, interleave = var_1037_interleave_0, values = (var_983_cast_fp16, var_985_cast_fp16, var_987_cast_fp16, var_989_cast_fp16))[name = tensor<string, []>("op_1037_cast_fp16")];
            tensor<bool, []> var_1039_interleave_0 = const()[name = tensor<string, []>("op_1039_interleave_0"), val = tensor<bool, []>(false)];
            tensor<fp16, [1, 64, 1, 1500]> var_1039_cast_fp16 = concat(axis = var_134, interleave = var_1039_interleave_0, values = (var_991_cast_fp16, var_993_cast_fp16, var_995_cast_fp16, var_997_cast_fp16))[name = tensor<string, []>("op_1039_cast_fp16")];
            tensor<bool, []> var_1041_interleave_0 = const()[name = tensor<string, []>("op_1041_interleave_0"), val = tensor<bool, []>(false)];
            tensor<fp16, [1, 64, 1, 1500]> var_1041_cast_fp16 = concat(axis = var_134, interleave = var_1041_interleave_0, values = (var_999_cast_fp16, var_1001_cast_fp16, var_1003_cast_fp16, var_1005_cast_fp16))[name = tensor<string, []>("op_1041_cast_fp16")];
            tensor<bool, []> var_1043_interleave_0 = const()[name = tensor<string, []>("op_1043_interleave_0"), val = tensor<bool, []>(false)];
            tensor<fp16, [1, 64, 1, 1500]> var_1043_cast_fp16 = concat(axis = var_134, interleave = var_1043_interleave_0, values = (var_1007_cast_fp16, var_1009_cast_fp16, var_1011_cast_fp16, var_1013_cast_fp16))[name = tensor<string, []>("op_1043_cast_fp16")];
            tensor<bool, []> var_1045_interleave_0 = const()[name = tensor<string, []>("op_1045_interleave_0"), val = tensor<bool, []>(false)];
            tensor<fp16, [1, 64, 1, 1500]> var_1045_cast_fp16 = concat(axis = var_134, interleave = var_1045_interleave_0, values = (var_1015_cast_fp16, var_1017_cast_fp16, var_1019_cast_fp16, var_1021_cast_fp16))[name = tensor<string, []>("op_1045_cast_fp16")];
            tensor<bool, []> input_1_interleave_0 = const()[name = tensor<string, []>("input_1_interleave_0"), val = tensor<bool, []>(false)];
            tensor<fp16, [1, 768, 1, 1500]> input_1_cast_fp16 = concat(axis = var_151, interleave = input_1_interleave_0, values = (var_1023_cast_fp16, var_1025_cast_fp16, var_1027_cast_fp16, var_1029_cast_fp16, var_1031_cast_fp16, var_1033_cast_fp16, var_1035_cast_fp16, var_1037_cast_fp16, var_1039_cast_fp16, var_1041_cast_fp16, var_1043_cast_fp16, var_1045_cast_fp16))[name = tensor<string, []>("input_1_cast_fp16")];
            tensor<int32, [2]> var_1050 = const()[name = tensor<string, []>("op_1050"), val = tensor<int32, [2]>([1, 1])];
            tensor<int32, [2]> var_1052 = const()[name = tensor<string, []>("op_1052"), val = tensor<int32, [2]>([1, 1])];
            tensor<string, []> obj_3_pad_type_0 = const()[name = tensor<string, []>("obj_3_pad_type_0"), val = tensor<string, []>("custom")];
            tensor<int32, [4]> obj_3_pad_0 = const()[name = tensor<string, []>("obj_3_pad_0"), val = tensor<int32, [4]>([0, 0, 0, 0])];
            tensor<fp16, [768, 768, 1, 1]> layers_0_self_attn_o_proj_weight_to_fp16 = const()[name = tensor<string, []>("layers_0_self_attn_o_proj_weight_to_fp16"), val = tensor<fp16, [768, 768, 1, 1]>(BLOBFILE(path = tensor<string, []>("@model_path/weights/weight.bin"), offset = tensor<uint64, []>(9763776)))];
            tensor<fp16, [768]> layers_0_self_attn_o_proj_bias_to_fp16 = const()[name = tensor<string, []>("layers_0_self_attn_o_proj_bias_to_fp16"), val = tensor<fp16, [768]>(BLOBFILE(path = tensor<string, []>("@model_path/weights/weight.bin"), offset = tensor<uint64, []>(10943488)))];
            tensor<fp16, [1, 768, 1, 1500]> obj_3_cast_fp16 = conv(bias = layers_0_self_attn_o_proj_bias_to_fp16, dilations = var_1052, groups = var_151, pad = obj_3_pad_0, pad_type = obj_3_pad_type_0, strides = var_1050, weight = layers_0_self_attn_o_proj_weight_to_fp16, x = input_1_cast_fp16)[name = tensor<string, []>("obj_3_cast_fp16")];
            tensor<fp16, [1, 768, 1, 1500]> inputs_3_cast_fp16 = add(x = inputs_1_cast_fp16, y = obj_3_cast_fp16)[name = tensor<string, []>("inputs_3_cast_fp16")];
            tensor<int32, [1]> var_1058 = const()[name = tensor<string, []>("op_1058"), val = tensor<int32, [1]>([1])];
            tensor<fp16, [1, 1, 1, 1500]> channels_mean_3_cast_fp16 = reduce_mean(axes = var_1058, keep_dims = var_152, x = inputs_3_cast_fp16)[name = tensor<string, []>("channels_mean_3_cast_fp16")];
            tensor<fp16, [1, 768, 1, 1500]> zero_mean_3_cast_fp16 = sub(x = inputs_3_cast_fp16, y = channels_mean_3_cast_fp16)[name = tensor<string, []>("zero_mean_3_cast_fp16")];
            tensor<fp16, [1, 768, 1, 1500]> zero_mean_sq_3_cast_fp16 = mul(x = zero_mean_3_cast_fp16, y = zero_mean_3_cast_fp16)[name = tensor<string, []>("zero_mean_sq_3_cast_fp16")];
            tensor<int32, [1]> var_1062 = const()[name = tensor<string, []>("op_1062"), val = tensor<int32, [1]>([1])];
            tensor<fp16, [1, 1, 1, 1500]> var_1063_cast_fp16 = reduce_mean(axes = var_1062, keep_dims = var_152, x = zero_mean_sq_3_cast_fp16)[name = tensor<string, []>("op_1063_cast_fp16")];
            tensor<fp16, []> var_1064_to_fp16 = const()[name = tensor<string, []>("op_1064_to_fp16"), val = tensor<fp16, []>(0x1.5p-17)];
            tensor<fp16, [1, 1, 1, 1500]> var_1065_cast_fp16 = add(x = var_1063_cast_fp16, y = var_1064_to_fp16)[name = tensor<string, []>("op_1065_cast_fp16")];
            tensor<fp16, []> denom_3_epsilon_0_to_fp16 = const()[name = tensor<string, []>("denom_3_epsilon_0_to_fp16"), val = tensor<fp16, []>(0x1p-24)];
            tensor<fp16, [1, 1, 1, 1500]> denom_3_cast_fp16 = rsqrt(epsilon = denom_3_epsilon_0_to_fp16, x = var_1065_cast_fp16)[name = tensor<string, []>("denom_3_cast_fp16")];
            tensor<fp16, [1, 768, 1, 1500]> out_3_cast_fp16 = mul(x = zero_mean_3_cast_fp16, y = denom_3_cast_fp16)[name = tensor<string, []>("out_3_cast_fp16")];
            tensor<fp16, [768]> input_3_gamma_0_to_fp16 = const()[name = tensor<string, []>("input_3_gamma_0_to_fp16"), val = tensor<fp16, [768]>(BLOBFILE(path = tensor<string, []>("@model_path/weights/weight.bin"), offset = tensor<uint64, []>(10945088)))];
            tensor<fp16, [768]> input_3_beta_0_to_fp16 = const()[name = tensor<string, []>("input_3_beta_0_to_fp16"), val = tensor<fp16, [768]>(BLOBFILE(path = tensor<string, []>("@model_path/weights/weight.bin"), offset = tensor<uint64, []>(10946688)))];
            tensor<fp16, []> input_3_epsilon_0_to_fp16 = const()[name = tensor<string, []>("input_3_epsilon_0_to_fp16"), val = tensor<fp16, []>(0x1.5p-17)];
            tensor<fp16, [1, 768, 1, 1500]> input_3_cast_fp16 = batch_norm(beta = input_3_beta_0_to_fp16, epsilon = input_3_epsilon_0_to_fp16, gamma = input_3_gamma_0_to_fp16, mean = obj_1_mean_0_to_fp16, variance = obj_1_variance_0_to_fp16, x = out_3_cast_fp16)[name = tensor<string, []>("input_3_cast_fp16")];
            tensor<int32, [2]> var_1076 = const()[name = tensor<string, []>("op_1076"), val = tensor<int32, [2]>([1, 1])];
            tensor<int32, [2]> var_1078 = const()[name = tensor<string, []>("op_1078"), val = tensor<int32, [2]>([1, 1])];
            tensor<string, []> input_5_pad_type_0 = const()[name = tensor<string, []>("input_5_pad_type_0"), val = tensor<string, []>("custom")];
            tensor<int32, [4]> input_5_pad_0 = const()[name = tensor<string, []>("input_5_pad_0"), val = tensor<int32, [4]>([0, 0, 0, 0])];
            tensor<fp16, [3072, 768, 1, 1]> layers_0_fc1_weight_to_fp16 = const()[name = tensor<string, []>("layers_0_fc1_weight_to_fp16"), val = tensor<fp16, [3072, 768, 1, 1]>(BLOBFILE(path = tensor<string, []>("@model_path/weights/weight.bin"), offset = tensor<uint64, []>(10948288)))];
            tensor<fp16, [3072]> layers_0_fc1_bias_to_fp16 = const()[name = tensor<string, []>("layers_0_fc1_bias_to_fp16"), val = tensor<fp16, [3072]>(BLOBFILE(path = tensor<string, []>("@model_path/weights/weight.bin"), offset = tensor<uint64, []>(15666944)))];
            tensor<fp16, [1, 3072, 1, 1500]> input_5_cast_fp16 = conv(bias = layers_0_fc1_bias_to_fp16, dilations = var_1078, groups = var_151, pad = input_5_pad_0, pad_type = input_5_pad_type_0, strides = var_1076, weight = layers_0_fc1_weight_to_fp16, x = input_3_cast_fp16)[name = tensor<string, []>("input_5_cast_fp16")];
            tensor<string, []> input_7_mode_0 = const()[name = tensor<string, []>("input_7_mode_0"), val = tensor<string, []>("EXACT")];
            tensor<fp16, [1, 3072, 1, 1500]> input_7_cast_fp16 = gelu(mode = input_7_mode_0, x = input_5_cast_fp16)[name = tensor<string, []>("input_7_cast_fp16")];
            tensor<int32, [2]> var_1084 = const()[name = tensor<string, []>("op_1084"), val = tensor<int32, [2]>([1, 1])];
            tensor<int32, [2]> var_1086 = const()[name = tensor<string, []>("op_1086"), val = tensor<int32, [2]>([1, 1])];
            tensor<string, []> hidden_states_5_pad_type_0 = const()[name = tensor<string, []>("hidden_states_5_pad_type_0"), val = tensor<string, []>("custom")];
            tensor<int32, [4]> hidden_states_5_pad_0 = const()[name = tensor<string, []>("hidden_states_5_pad_0"), val = tensor<int32, [4]>([0, 0, 0, 0])];
            tensor<fp16, [768, 3072, 1, 1]> layers_0_fc2_weight_to_fp16 = const()[name = tensor<string, []>("layers_0_fc2_weight_to_fp16"), val = tensor<fp16, [768, 3072, 1, 1]>(BLOBFILE(path = tensor<string, []>("@model_path/weights/weight.bin"), offset = tensor<uint64, []>(15673152)))];
            tensor<fp16, [768]> layers_0_fc2_bias_to_fp16 = const()[name = tensor<string, []>("layers_0_fc2_bias_to_fp16"), val = tensor<fp16, [768]>(BLOBFILE(path = tensor<string, []>("@model_path/weights/weight.bin"), offset = tensor<uint64, []>(20391808)))];
            tensor<fp16, [1, 768, 1, 1500]> hidden_states_5_cast_fp16 = conv(bias = layers_0_fc2_bias_to_fp16, dilations = var_1086, groups = var_151, pad = hidden_states_5_pad_0, pad_type = hidden_states_5_pad_type_0, strides = var_1084, weight = layers_0_fc2_weight_to_fp16, x = input_7_cast_fp16)[name = tensor<string, []>("hidden_states_5_cast_fp16")];
            tensor<fp16, [1, 768, 1, 1500]> inputs_5_cast_fp16 = add(x = inputs_3_cast_fp16, y = hidden_states_5_cast_fp16)[name = tensor<string, []>("inputs_5_cast_fp16")];
            tensor<int32, []> var_1093 = const()[name = tensor<string, []>("op_1093"), val = tensor<int32, []>(3)];
            tensor<int32, []> var_1110 = const()[name = tensor<string, []>("op_1110"), val = tensor<int32, []>(1)];
            tensor<bool, []> var_1111 = const()[name = tensor<string, []>("op_1111"), val = tensor<bool, []>(true)];
            tensor<int32, [1]> var_1121 = const()[name = tensor<string, []>("op_1121"), val = tensor<int32, [1]>([1])];
            tensor<fp16, [1, 1, 1, 1500]> channels_mean_5_cast_fp16 = reduce_mean(axes = var_1121, keep_dims = var_1111, x = inputs_5_cast_fp16)[name = tensor<string, []>("channels_mean_5_cast_fp16")];
            tensor<fp16, [1, 768, 1, 1500]> zero_mean_5_cast_fp16 = sub(x = inputs_5_cast_fp16, y = channels_mean_5_cast_fp16)[name = tensor<string, []>("zero_mean_5_cast_fp16")];
            tensor<fp16, [1, 768, 1, 1500]> zero_mean_sq_5_cast_fp16 = mul(x = zero_mean_5_cast_fp16, y = zero_mean_5_cast_fp16)[name = tensor<string, []>("zero_mean_sq_5_cast_fp16")];
            tensor<int32, [1]> var_1125 = const()[name = tensor<string, []>("op_1125"), val = tensor<int32, [1]>([1])];
            tensor<fp16, [1, 1, 1, 1500]> var_1126_cast_fp16 = reduce_mean(axes = var_1125, keep_dims = var_1111, x = zero_mean_sq_5_cast_fp16)[name = tensor<string, []>("op_1126_cast_fp16")];
            tensor<fp16, []> var_1127_to_fp16 = const()[name = tensor<string, []>("op_1127_to_fp16"), val = tensor<fp16, []>(0x1.5p-17)];
            tensor<fp16, [1, 1, 1, 1500]> var_1128_cast_fp16 = add(x = var_1126_cast_fp16, y = var_1127_to_fp16)[name = tensor<string, []>("op_1128_cast_fp16")];
            tensor<fp16, []> denom_5_epsilon_0_to_fp16 = const()[name = tensor<string, []>("denom_5_epsilon_0_to_fp16"), val = tensor<fp16, []>(0x1p-24)];
            tensor<fp16, [1, 1, 1, 1500]> denom_5_cast_fp16 = rsqrt(epsilon = denom_5_epsilon_0_to_fp16, x = var_1128_cast_fp16)[name = tensor<string, []>("denom_5_cast_fp16")];
            tensor<fp16, [1, 768, 1, 1500]> out_5_cast_fp16 = mul(x = zero_mean_5_cast_fp16, y = denom_5_cast_fp16)[name = tensor<string, []>("out_5_cast_fp16")];
            tensor<fp16, [768]> obj_5_gamma_0_to_fp16 = const()[name = tensor<string, []>("obj_5_gamma_0_to_fp16"), val = tensor<fp16, [768]>(BLOBFILE(path = tensor<string, []>("@model_path/weights/weight.bin"), offset = tensor<uint64, []>(20393408)))];
            tensor<fp16, [768]> obj_5_beta_0_to_fp16 = const()[name = tensor<string, []>("obj_5_beta_0_to_fp16"), val = tensor<fp16, [768]>(BLOBFILE(path = tensor<string, []>("@model_path/weights/weight.bin"), offset = tensor<uint64, []>(20395008)))];
            tensor<fp16, []> obj_5_epsilon_0_to_fp16 = const()[name = tensor<string, []>("obj_5_epsilon_0_to_fp16"), val = tensor<fp16, []>(0x1.5p-17)];
            tensor<fp16, [1, 768, 1, 1500]> obj_5_cast_fp16 = batch_norm(beta = obj_5_beta_0_to_fp16, epsilon = obj_5_epsilon_0_to_fp16, gamma = obj_5_gamma_0_to_fp16, mean = obj_1_mean_0_to_fp16, variance = obj_1_variance_0_to_fp16, x = out_5_cast_fp16)[name = tensor<string, []>("obj_5_cast_fp16")];
            tensor<int32, [2]> var_1143 = const()[name = tensor<string, []>("op_1143"), val = tensor<int32, [2]>([1, 1])];
            tensor<int32, [2]> var_1145 = const()[name = tensor<string, []>("op_1145"), val = tensor<int32, [2]>([1, 1])];
            tensor<string, []> query_3_pad_type_0 = const()[name = tensor<string, []>("query_3_pad_type_0"), val = tensor<string, []>("custom")];
            tensor<int32, [4]> query_3_pad_0 = const()[name = tensor<string, []>("query_3_pad_0"), val = tensor<int32, [4]>([0, 0, 0, 0])];
            tensor<fp16, [768, 768, 1, 1]> layers_1_self_attn_q_proj_weight_to_fp16 = const()[name = tensor<string, []>("layers_1_self_attn_q_proj_weight_to_fp16"), val = tensor<fp16, [768, 768, 1, 1]>(BLOBFILE(path = tensor<string, []>("@model_path/weights/weight.bin"), offset = tensor<uint64, []>(20396608)))];
            tensor<fp16, [768]> layers_1_self_attn_q_proj_bias_to_fp16 = const()[name = tensor<string, []>("layers_1_self_attn_q_proj_bias_to_fp16"), val = tensor<fp16, [768]>(BLOBFILE(path = tensor<string, []>("@model_path/weights/weight.bin"), offset = tensor<uint64, []>(21576320)))];
            tensor<fp16, [1, 768, 1, 1500]> query_3_cast_fp16 = conv(bias = layers_1_self_attn_q_proj_bias_to_fp16, dilations = var_1145, groups = var_1110, pad = query_3_pad_0, pad_type = query_3_pad_type_0, strides = var_1143, weight = layers_1_self_attn_q_proj_weight_to_fp16, x = obj_5_cast_fp16)[name = tensor<string, []>("query_3_cast_fp16")];
            tensor<int32, [2]> var_1149 = const()[name = tensor<string, []>("op_1149"), val = tensor<int32, [2]>([1, 1])];
            tensor<int32, [2]> var_1151 = const()[name = tensor<string, []>("op_1151"), val = tensor<int32, [2]>([1, 1])];
            tensor<string, []> key_3_pad_type_0 = const()[name = tensor<string, []>("key_3_pad_type_0"), val = tensor<string, []>("custom")];
            tensor<int32, [4]> key_3_pad_0 = const()[name = tensor<string, []>("key_3_pad_0"), val = tensor<int32, [4]>([0, 0, 0, 0])];
            tensor<fp16, [768, 768, 1, 1]> layers_1_self_attn_k_proj_weight_to_fp16 = const()[name = tensor<string, []>("layers_1_self_attn_k_proj_weight_to_fp16"), val = tensor<fp16, [768, 768, 1, 1]>(BLOBFILE(path = tensor<string, []>("@model_path/weights/weight.bin"), offset = tensor<uint64, []>(21577920)))];
            tensor<fp16, [1, 768, 1, 1500]> key_3_cast_fp16 = conv(dilations = var_1151, groups = var_1110, pad = key_3_pad_0, pad_type = key_3_pad_type_0, strides = var_1149, weight = layers_1_self_attn_k_proj_weight_to_fp16, x = obj_5_cast_fp16)[name = tensor<string, []>("key_3_cast_fp16")];
            tensor<int32, [2]> var_1156 = const()[name = tensor<string, []>("op_1156"), val = tensor<int32, [2]>([1, 1])];
            tensor<int32, [2]> var_1158 = const()[name = tensor<string, []>("op_1158"), val = tensor<int32, [2]>([1, 1])];
            tensor<string, []> value_3_pad_type_0 = const()[name = tensor<string, []>("value_3_pad_type_0"), val = tensor<string, []>("custom")];
            tensor<int32, [4]> value_3_pad_0 = const()[name = tensor<string, []>("value_3_pad_0"), val = tensor<int32, [4]>([0, 0, 0, 0])];
            tensor<fp16, [768, 768, 1, 1]> layers_1_self_attn_v_proj_weight_to_fp16 = const()[name = tensor<string, []>("layers_1_self_attn_v_proj_weight_to_fp16"), val = tensor<fp16, [768, 768, 1, 1]>(BLOBFILE(path = tensor<string, []>("@model_path/weights/weight.bin"), offset = tensor<uint64, []>(22757632)))];
            tensor<fp16, [768]> layers_1_self_attn_v_proj_bias_to_fp16 = const()[name = tensor<string, []>("layers_1_self_attn_v_proj_bias_to_fp16"), val = tensor<fp16, [768]>(BLOBFILE(path = tensor<string, []>("@model_path/weights/weight.bin"), offset = tensor<uint64, []>(23937344)))];
            tensor<fp16, [1, 768, 1, 1500]> value_3_cast_fp16 = conv(bias = layers_1_self_attn_v_proj_bias_to_fp16, dilations = var_1158, groups = var_1110, pad = value_3_pad_0, pad_type = value_3_pad_type_0, strides = var_1156, weight = layers_1_self_attn_v_proj_weight_to_fp16, x = obj_5_cast_fp16)[name = tensor<string, []>("value_3_cast_fp16")];
            tensor<int32, [4]> var_1165_begin_0 = const()[name = tensor<string, []>("op_1165_begin_0"), val = tensor<int32, [4]>([0, 0, 0, 0])];
            tensor<int32, [4]> var_1165_end_0 = const()[name = tensor<string, []>("op_1165_end_0"), val = tensor<int32, [4]>([1, 64, 1, 1500])];
            tensor<bool, [4]> var_1165_end_mask_0 = const()[name = tensor<string, []>("op_1165_end_mask_0"), val = tensor<bool, [4]>([true, false, true, true])];
            tensor<fp16, [1, 64, 1, 1500]> var_1165_cast_fp16 = slice_by_index(begin = var_1165_begin_0, end = var_1165_end_0, end_mask = var_1165_end_mask_0, x = query_3_cast_fp16)[name = tensor<string, []>("op_1165_cast_fp16")];
            tensor<int32, [4]> var_1169_begin_0 = const()[name = tensor<string, []>("op_1169_begin_0"), val = tensor<int32, [4]>([0, 64, 0, 0])];
            tensor<int32, [4]> var_1169_end_0 = const()[name = tensor<string, []>("op_1169_end_0"), val = tensor<int32, [4]>([1, 128, 1, 1500])];
            tensor<bool, [4]> var_1169_end_mask_0 = const()[name = tensor<string, []>("op_1169_end_mask_0"), val = tensor<bool, [4]>([true, false, true, true])];
            tensor<fp16, [1, 64, 1, 1500]> var_1169_cast_fp16 = slice_by_index(begin = var_1169_begin_0, end = var_1169_end_0, end_mask = var_1169_end_mask_0, x = query_3_cast_fp16)[name = tensor<string, []>("op_1169_cast_fp16")];
            tensor<int32, [4]> var_1173_begin_0 = const()[name = tensor<string, []>("op_1173_begin_0"), val = tensor<int32, [4]>([0, 128, 0, 0])];
            tensor<int32, [4]> var_1173_end_0 = const()[name = tensor<string, []>("op_1173_end_0"), val = tensor<int32, [4]>([1, 192, 1, 1500])];
            tensor<bool, [4]> var_1173_end_mask_0 = const()[name = tensor<string, []>("op_1173_end_mask_0"), val = tensor<bool, [4]>([true, false, true, true])];
            tensor<fp16, [1, 64, 1, 1500]> var_1173_cast_fp16 = slice_by_index(begin = var_1173_begin_0, end = var_1173_end_0, end_mask = var_1173_end_mask_0, x = query_3_cast_fp16)[name = tensor<string, []>("op_1173_cast_fp16")];
            tensor<int32, [4]> var_1177_begin_0 = const()[name = tensor<string, []>("op_1177_begin_0"), val = tensor<int32, [4]>([0, 192, 0, 0])];
            tensor<int32, [4]> var_1177_end_0 = const()[name = tensor<string, []>("op_1177_end_0"), val = tensor<int32, [4]>([1, 256, 1, 1500])];
            tensor<bool, [4]> var_1177_end_mask_0 = const()[name = tensor<string, []>("op_1177_end_mask_0"), val = tensor<bool, [4]>([true, false, true, true])];
            tensor<fp16, [1, 64, 1, 1500]> var_1177_cast_fp16 = slice_by_index(begin = var_1177_begin_0, end = var_1177_end_0, end_mask = var_1177_end_mask_0, x = query_3_cast_fp16)[name = tensor<string, []>("op_1177_cast_fp16")];
            tensor<int32, [4]> var_1181_begin_0 = const()[name = tensor<string, []>("op_1181_begin_0"), val = tensor<int32, [4]>([0, 256, 0, 0])];
            tensor<int32, [4]> var_1181_end_0 = const()[name = tensor<string, []>("op_1181_end_0"), val = tensor<int32, [4]>([1, 320, 1, 1500])];
            tensor<bool, [4]> var_1181_end_mask_0 = const()[name = tensor<string, []>("op_1181_end_mask_0"), val = tensor<bool, [4]>([true, false, true, true])];
            tensor<fp16, [1, 64, 1, 1500]> var_1181_cast_fp16 = slice_by_index(begin = var_1181_begin_0, end = var_1181_end_0, end_mask = var_1181_end_mask_0, x = query_3_cast_fp16)[name = tensor<string, []>("op_1181_cast_fp16")];
            tensor<int32, [4]> var_1185_begin_0 = const()[name = tensor<string, []>("op_1185_begin_0"), val = tensor<int32, [4]>([0, 320, 0, 0])];
            tensor<int32, [4]> var_1185_end_0 = const()[name = tensor<string, []>("op_1185_end_0"), val = tensor<int32, [4]>([1, 384, 1, 1500])];
            tensor<bool, [4]> var_1185_end_mask_0 = const()[name = tensor<string, []>("op_1185_end_mask_0"), val = tensor<bool, [4]>([true, false, true, true])];
            tensor<fp16, [1, 64, 1, 1500]> var_1185_cast_fp16 = slice_by_index(begin = var_1185_begin_0, end = var_1185_end_0, end_mask = var_1185_end_mask_0, x = query_3_cast_fp16)[name = tensor<string, []>("op_1185_cast_fp16")];
            tensor<int32, [4]> var_1189_begin_0 = const()[name = tensor<string, []>("op_1189_begin_0"), val = tensor<int32, [4]>([0, 384, 0, 0])];
            tensor<int32, [4]> var_1189_end_0 = const()[name = tensor<string, []>("op_1189_end_0"), val = tensor<int32, [4]>([1, 448, 1, 1500])];
            tensor<bool, [4]> var_1189_end_mask_0 = const()[name = tensor<string, []>("op_1189_end_mask_0"), val = tensor<bool, [4]>([true, false, true, true])];
…
            tensor<fp16, []> var_11381_to_fp16 = const()[name = tensor<string, []>("op_11381_to_fp16"), val = tensor<fp16, []>(0x1p-3)];
            tensor<fp16, [1, 1500, 1, 375]> aw_chunk_1129_cast_fp16 = mul(x = var_11380_cast_fp16, y = var_11381_to_fp16)[name = tensor<string, []>("aw_chunk_1129_cast_fp16")];
            tensor<string, []> var_11384_equation_0 = const()[name = tensor<string, []>("op_11384_equation_0"), val = tensor<string, []>("bkhc,bchq->bkhq")];
            tensor<fp16, [1, 1500, 1, 375]> var_11384_cast_fp16 = einsum(equation = var_11384_equation_0, values = (var_11178_cast_fp16, var_11067_cast_fp16))[name = tensor<string, []>("op_11384_cast_fp16")];
            tensor<fp16, []> var_11385_to_fp16 = const()[name = tensor<string, []>("op_11385_to_fp16"), val = tensor<fp16, []>(0x1p-3)];
            tensor<fp16, [1, 1500, 1, 375]> aw_chunk_1131_cast_fp16 = mul(x = var_11384_cast_fp16, y = var_11385_to_fp16)[name = tensor<string, []>("aw_chunk_1131_cast_fp16")];
            tensor<string, []> var_11388_equation_0 = const()[name = tensor<string, []>("op_11388_equation_0"), val = tensor<string, []>("bkhc,bchq->bkhq")];
            tensor<fp16, [1, 1500, 1, 375]> var_11388_cast_fp16 = einsum(equation = var_11388_equation_0, values = (var_11178_cast_fp16, var_11074_cast_fp16))[name = tensor<string, []>("op_11388_cast_fp16")];
            tensor<fp16, []> var_11389_to_fp16 = const()[name = tensor<string, []>("op_11389_to_fp16"), val = tensor<fp16, []>(0x1p-3)];
            tensor<fp16, [1, 1500, 1, 375]> aw_chunk_1133_cast_fp16 = mul(x = var_11388_cast_fp16, y = var_11389_to_fp16)[name = tensor<string, []>("aw_chunk_1133_cast_fp16")];
            tensor<string, []> var_11392_equation_0 = const()[name = tensor<string, []>("op_11392_equation_0"), val = tensor<string, []>("bkhc,bchq->bkhq")];
            tensor<fp16, [1, 1500, 1, 375]> var_11392_cast_fp16 = einsum(equation = var_11392_equation_0, values = (var_11178_cast_fp16, var_11081_cast_fp16))[name = tensor<string, []>("op_11392_cast_fp16")];
            tensor<fp16, []> var_11393_to_fp16 = const()[name = tensor<string, []>("op_11393_to_fp16"), val = tensor<fp16, []>(0x1p-3)];
            tensor<fp16, [1, 1500, 1, 375]> aw_chunk_1135_cast_fp16 = mul(x = var_11392_cast_fp16, y = var_11393_to_fp16)[name = tensor<string, []>("aw_chunk_1135_cast_fp16")];
            tensor<string, []> var_11396_equation_0 = const()[name = tensor<string, []>("op_11396_equation_0"), val = tensor<string, []>("bkhc,bchq->bkhq")];
            tensor<fp16, [1, 1500, 1, 375]> var_11396_cast_fp16 = einsum(equation = var_11396_equation_0, values = (var_11182_cast_fp16, var_11088_cast_fp16))[name = tensor<string, []>("op_11396_cast_fp16")];
            tensor<fp16, []> var_11397_to_fp16 = const()[name = tensor<string, []>("op_11397_to_fp16"), val = tensor<fp16, []>(0x1p-3)];
            tensor<fp16, [1, 1500, 1, 375]> aw_chunk_1137_cast_fp16 = mul(x = var_11396_cast_fp16, y = var_11397_to_fp16)[name = tensor<string, []>("aw_chunk_1137_cast_fp16")];
            tensor<string, []> var_11400_equation_0 = const()[name = tensor<string, []>("op_11400_equation_0"), val = tensor<string, []>("bkhc,bchq->bkhq")];
            tensor<fp16, [1, 1500, 1, 375]> var_11400_cast_fp16 = einsum(equation = var_11400_equation_0, values = (var_11182_cast_fp16, var_11095_cast_fp16))[name = tensor<string, []>("op_11400_cast_fp16")];
            tensor<fp16, []> var_11401_to_fp16 = const()[name = tensor<string, []>("op_11401_to_fp16"), val = tensor<fp16, []>(0x1p-3)];
            tensor<fp16, [1, 1500, 1, 375]> aw_chunk_1139_cast_fp16 = mul(x = var_11400_cast_fp16, y = var_11401_to_fp16)[name = tensor<string, []>("aw_chunk_1139_cast_fp16")];
            tensor<string, []> var_11404_equation_0 = const()[name = tensor<string, []>("op_11404_equation_0"), val = tensor<string, []>("bkhc,bchq->bkhq")];
            tensor<fp16, [1, 1500, 1, 375]> var_11404_cast_fp16 = einsum(equation = var_11404_equation_0, values = (var_11182_cast_fp16, var_11102_cast_fp16))[name = tensor<string, []>("op_11404_cast_fp16")];
            tensor<fp16, []> var_11405_to_fp16 = const()[name = tensor<string, []>("op_11405_to_fp16"), val = tensor<fp16, []>(0x1p-3)];
            tensor<fp16, [1, 1500, 1, 375]> aw_chunk_1141_cast_fp16 = mul(x = var_11404_cast_fp16, y = var_11405_to_fp16)[name = tensor<string, []>("aw_chunk_1141_cast_fp16")];
            tensor<string, []> var_11408_equation_0 = const()[name = tensor<string, []>("op_11408_equation_0"), val = tensor<string, []>("bkhc,bchq->bkhq")];
            tensor<fp16, [1, 1500, 1, 375]> var_11408_cast_fp16 = einsum(equation = var_11408_equation_0, values = (var_11182_cast_fp16, var_11109_cast_fp16))[name = tensor<string, []>("op_11408_cast_fp16")];
            tensor<fp16, []> var_11409_to_fp16 = const()[name = tensor<string, []>("op_11409_to_fp16"), val = tensor<fp16, []>(0x1p-3)];
            tensor<fp16, [1, 1500, 1, 375]> aw_chunk_1143_cast_fp16 = mul(x = var_11408_cast_fp16, y = var_11409_to_fp16)[name = tensor<string, []>("aw_chunk_1143_cast_fp16")];
            tensor<string, []> var_11412_equation_0 = const()[name = tensor<string, []>("op_11412_equation_0"), val = tensor<string, []>("bkhc,bchq->bkhq")];
            tensor<fp16, [1, 1500, 1, 375]> var_11412_cast_fp16 = einsum(equation = var_11412_equation_0, values = (var_11186_cast_fp16, var_11116_cast_fp16))[name = tensor<string, []>("op_11412_cast_fp16")];
            tensor<fp16, []> var_11413_to_fp16 = const()[name = tensor<string, []>("op_11413_to_fp16"), val = tensor<fp16, []>(0x1p-3)];
            tensor<fp16, [1, 1500, 1, 375]> aw_chunk_1145_cast_fp16 = mul(x = var_11412_cast_fp16, y = var_11413_to_fp16)[name = tensor<string, []>("aw_chunk_1145_cast_fp16")];
            tensor<string, []> var_11416_equation_0 = const()[name = tensor<string, []>("op_11416_equation_0"), val = tensor<string, []>("bkhc,bchq->bkhq")];
            tensor<fp16, [1, 1500, 1, 375]> var_11416_cast_fp16 = einsum(equation = var_11416_equation_0, values = (var_11186_cast_fp16, var_11123_cast_fp16))[name = tensor<string, []>("op_11416_cast_fp16")];
            tensor<fp16, []> var_11417_to_fp16 = const()[name = tensor<string, []>("op_11417_to_fp16"), val = tensor<fp16, []>(0x1p-3)];
            tensor<fp16, [1, 1500, 1, 375]> aw_chunk_1147_cast_fp16 = mul(x = var_11416_cast_fp16, y = var_11417_to_fp16)[name = tensor<string, []>("aw_chunk_1147_cast_fp16")];
            tensor<string, []> var_11420_equation_0 = const()[name = tensor<string, []>("op_11420_equation_0"), val = tensor<string, []>("bkhc,bchq->bkhq")];
            tensor<fp16, [1, 1500, 1, 375]> var_11420_cast_fp16 = einsum(equation = var_11420_equation_0, values = (var_11186_cast_fp16, var_11130_cast_fp16))[name = tensor<string, []>("op_11420_cast_fp16")];
            tensor<fp16, []> var_11421_to_fp16 = const()[name = tensor<string, []>("op_11421_to_fp16"), val = tensor<fp16, []>(0x1p-3)];
            tensor<fp16, [1, 1500, 1, 375]> aw_chunk_1149_cast_fp16 = mul(x = var_11420_cast_fp16, y = var_11421_to_fp16)[name = tensor<string, []>("aw_chunk_1149_cast_fp16")];
            tensor<string, []> var_11424_equation_0 = const()[name = tensor<string, []>("op_11424_equation_0"), val = tensor<string, []>("bkhc,bchq->bkhq")];
            tensor<fp16, [1, 1500, 1, 375]> var_11424_cast_fp16 = einsum(equation = var_11424_equation_0, values = (var_11186_cast_fp16, var_11137_cast_fp16))[name = tensor<string, []>("op_11424_cast_fp16")];
            tensor<fp16, []> var_11425_to_fp16 = const()[name = tensor<string, []>("op_11425_to_fp16"), val = tensor<fp16, []>(0x1p-3)];
            tensor<fp16, [1, 1500, 1, 375]> aw_chunk_cast_fp16 = mul(x = var_11424_cast_fp16, y = var_11425_to_fp16)[name = tensor<string, []>("aw_chunk_cast_fp16")];
            tensor<fp16, [1, 1500, 1, 375]> var_11427_cast_fp16 = softmax(axis = var_10700, x = aw_chunk_1057_cast_fp16)[name = tensor<string, []>("op_11427_cast_fp16")];
            tensor<fp16, [1, 1500, 1, 375]> var_11428_cast_fp16 = softmax(axis = var_10700, x = aw_chunk_1059_cast_fp16)[name = tensor<string, []>("op_11428_cast_fp16")];
            tensor<fp16, [1, 1500, 1, 375]> var_11429_cast_fp16 = softmax(axis = var_10700, x = aw_chunk_1061_cast_fp16)[name = tensor<string, []>("op_11429_cast_fp16")];
            tensor<fp16, [1, 1500, 1, 375]> var_11430_cast_fp16 = softmax(axis = var_10700, x = aw_chunk_1063_cast_fp16)[name = tensor<string, []>("op_11430_cast_fp16")];
            tensor<fp16, [1, 1500, 1, 375]> var_11431_cast_fp16 = softmax(axis = var_10700, x = aw_chunk_1065_cast_fp16)[name = tensor<string, []>("op_11431_cast_fp16")];
            tensor<fp16, [1, 1500, 1, 375]> var_11432_cast_fp16 = softmax(axis = var_10700, x = aw_chunk_1067_cast_fp16)[name = tensor<string, []>("op_11432_cast_fp16")];
            tensor<fp16, [1, 1500, 1, 375]> var_11433_cast_fp16 = softmax(axis = var_10700, x = aw_chunk_1069_cast_fp16)[name = tensor<string, []>("op_11433_cast_fp16")];
            tensor<fp16, [1, 1500, 1, 375]> var_11434_cast_fp16 = softmax(axis = var_10700, x = aw_chunk_1071_cast_fp16)[name = tensor<string, []>("op_11434_cast_fp16")];
            tensor<fp16, [1, 1500, 1, 375]> var_11435_cast_fp16 = softmax(axis = var_10700, x = aw_chunk_1073_cast_fp16)[name = tensor<string, []>("op_11435_cast_fp16")];
            tensor<fp16, [1, 1500, 1, 375]> var_11436_cast_fp16 = softmax(axis = var_10700, x = aw_chunk_1075_cast_fp16)[name = tensor<string, []>("op_11436_cast_fp16")];
            tensor<fp16, [1, 1500, 1, 375]> var_11437_cast_fp16 = softmax(axis = var_10700, x = aw_chunk_1077_cast_fp16)[name = tensor<string, []>("op_11437_cast_fp16")];
            tensor<fp16, [1, 1500, 1, 375]> var_11438_cast_fp16 = softmax(axis = var_10700, x = aw_chunk_1079_cast_fp16)[name = tensor<string, []>("op_11438_cast_fp16")];
            tensor<fp16, [1, 1500, 1, 375]> var_11439_cast_fp16 = softmax(axis = var_10700, x = aw_chunk_1081_cast_fp16)[name = tensor<string, []>("op_11439_cast_fp16")];
            tensor<fp16, [1, 1500, 1, 375]> var_11440_cast_fp16 = softmax(axis = var_10700, x = aw_chunk_1083_cast_fp16)[name = tensor<string, []>("op_11440_cast_fp16")];
            tensor<fp16, [1, 1500, 1, 375]> var_11441_cast_fp16 = softmax(axis = var_10700, x = aw_chunk_1085_cast_fp16)[name = tensor<string, []>("op_11441_cast_fp16")];
            tensor<fp16, [1, 1500, 1, 375]> var_11442_cast_fp16 = softmax(axis = var_10700, x = aw_chunk_1087_cast_fp16)[name = tensor<string, []>("op_11442_cast_fp16")];
            tensor<fp16, [1, 1500, 1, 375]> var_11443_cast_fp16 = softmax(axis = var_10700, x = aw_chunk_1089_cast_fp16)[name = tensor<string, []>("op_11443_cast_fp16")];
            tensor<fp16, [1, 1500, 1, 375]> var_11444_cast_fp16 = softmax(axis = var_10700, x = aw_chunk_1091_cast_fp16)[name = tensor<string, []>("op_11444_cast_fp16")];
            tensor<fp16, [1, 1500, 1, 375]> var_11445_cast_fp16 = softmax(axis = var_10700, x = aw_chunk_1093_cast_fp16)[name = tensor<string, []>("op_11445_cast_fp16")];
            tensor<fp16, [1, 1500, 1, 375]> var_11446_cast_fp16 = softmax(axis = var_10700, x = aw_chunk_1095_cast_fp16)[name = tensor<string, []>("op_11446_cast_fp16")];
            tensor<fp16, [1, 1500, 1, 375]> var_11447_cast_fp16 = softmax(axis = var_10700, x = aw_chunk_1097_cast_fp16)[name = tensor<string, []>("op_11447_cast_fp16")];
            tensor<fp16, [1, 1500, 1, 375]> var_11448_cast_fp16 = softmax(axis = var_10700, x = aw_chunk_1099_cast_fp16)[name = tensor<string, []>("op_11448_cast_fp16")];
            tensor<fp16, [1, 1500, 1, 375]> var_11449_cast_fp16 = softmax(axis = var_10700, x = aw_chunk_1101_cast_fp16)[name = tensor<string, []>("op_11449_cast_fp16")];
            tensor<fp16, [1, 1500, 1, 375]> var_11450_cast_fp16 = softmax(axis = var_10700, x = aw_chunk_1103_cast_fp16)[name = tensor<string, []>("op_11450_cast_fp16")];
            tensor<fp16, [1, 1500, 1, 375]> var_11451_cast_fp16 = softmax(axis = var_10700, x = aw_chunk_1105_cast_fp16)[name = tensor<string, []>("op_11451_cast_fp16")];
            tensor<fp16, [1, 1500, 1, 375]> var_11452_cast_fp16 = softmax(axis = var_10700, x = aw_chunk_1107_cast_fp16)[name = tensor<string, []>("op_11452_cast_fp16")];
            tensor<fp16, [1, 1500, 1, 375]> var_11453_cast_fp16 = softmax(axis = var_10700, x = aw_chunk_1109_cast_fp16)[name = tensor<string, []>("op_11453_cast_fp16")];
            tensor<fp16, [1, 1500, 1, 375]> var_11454_cast_fp16 = softmax(axis = var_10700, x = aw_chunk_1111_cast_fp16)[name = tensor<string, []>("op_11454_cast_fp16")];
            tensor<fp16, [1, 1500, 1, 375]> var_11455_cast_fp16 = softmax(axis = var_10700, x = aw_chunk_1113_cast_fp16)[name = tensor<string, []>("op_11455_cast_fp16")];
            tensor<fp16, [1, 1500, 1, 375]> var_11456_cast_fp16 = softmax(axis = var_10700, x = aw_chunk_1115_cast_fp16)[name = tensor<string, []>("op_11456_cast_fp16")];
            tensor<fp16, [1, 1500, 1, 375]> var_11457_cast_fp16 = softmax(axis = var_10700, x = aw_chunk_1117_cast_fp16)[name = tensor<string, []>("op_11457_cast_fp16")];
            tensor<fp16, [1, 1500, 1, 375]> var_11458_cast_fp16 = softmax(axis = var_10700, x = aw_chunk_1119_cast_fp16)[name = tensor<string, []>("op_11458_cast_fp16")];
            tensor<fp16, [1, 1500, 1, 375]> var_11459_cast_fp16 = softmax(axis = var_10700, x = aw_chunk_1121_cast_fp16)[name = tensor<string, []>("op_11459_cast_fp16")];
            tensor<fp16, [1, 1500, 1, 375]> var_11460_cast_fp16 = softmax(axis = var_10700, x = aw_chunk_1123_cast_fp16)[name = tensor<string, []>("op_11460_cast_fp16")];
            tensor<fp16, [1, 1500, 1, 375]> var_11461_cast_fp16 = softmax(axis = var_10700, x = aw_chunk_1125_cast_fp16)[name = tensor<string, []>("op_11461_cast_fp16")];
            tensor<fp16, [1, 1500, 1, 375]> var_11462_cast_fp16 = softmax(axis = var_10700, x = aw_chunk_1127_cast_fp16)[name = tensor<string, []>("op_11462_cast_fp16")];
            tensor<fp16, [1, 1500, 1, 375]> var_11463_cast_fp16 = softmax(axis = var_10700, x = aw_chunk_1129_cast_fp16)[name = tensor<string, []>("op_11463_cast_fp16")];
            tensor<fp16, [1, 1500, 1, 375]> var_11464_cast_fp16 = softmax(axis = var_10700, x = aw_chunk_1131_cast_fp16)[name = tensor<string, []>("op_11464_cast_fp16")];
            tensor<fp16, [1, 1500, 1, 375]> var_11465_cast_fp16 = softmax(axis = var_10700, x = aw_chunk_1133_cast_fp16)[name = tensor<string, []>("op_11465_cast_fp16")];
            tensor<fp16, [1, 1500, 1, 375]> var_11466_cast_fp16 = softmax(axis = var_10700, x = aw_chunk_1135_cast_fp16)[name = tensor<string, []>("op_11466_cast_fp16")];
            tensor<fp16, [1, 1500, 1, 375]> var_11467_cast_fp16 = softmax(axis = var_10700, x = aw_chunk_1137_cast_fp16)[name = tensor<string, []>("op_11467_cast_fp16")];
            tensor<fp16, [1, 1500, 1, 375]> var_11468_cast_fp16 = softmax(axis = var_10700, x = aw_chunk_1139_cast_fp16)[name = tensor<string, []>("op_11468_cast_fp16")];
            tensor<fp16, [1, 1500, 1, 375]> var_11469_cast_fp16 = softmax(axis = var_10700, x = aw_chunk_1141_cast_fp16)[name = tensor<string, []>("op_11469_cast_fp16")];
            tensor<fp16, [1, 1500, 1, 375]> var_11470_cast_fp16 = softmax(axis = var_10700, x = aw_chunk_1143_cast_fp16)[name = tensor<string, []>("op_11470_cast_fp16")];
            tensor<fp16, [1, 1500, 1, 375]> var_11471_cast_fp16 = softmax(axis = var_10700, x = aw_chunk_1145_cast_fp16)[name = tensor<string, []>("op_11471_cast_fp16")];
            tensor<fp16, [1, 1500, 1, 375]> var_11472_cast_fp16 = softmax(axis = var_10700, x = aw_chunk_1147_cast_fp16)[name = tensor<string, []>("op_11472_cast_fp16")];
            tensor<fp16, [1, 1500, 1, 375]> var_11473_cast_fp16 = softmax(axis = var_10700, x = aw_chunk_1149_cast_fp16)[name = tensor<string, []>("op_11473_cast_fp16")];
            tensor<fp16, [1, 1500, 1, 375]> var_11474_cast_fp16 = softmax(axis = var_10700, x = aw_chunk_cast_fp16)[name = tensor<string, []>("op_11474_cast_fp16")];
            tensor<string, []> var_11476_equation_0 = const()[name = tensor<string, []>("op_11476_equation_0"), val = tensor<string, []>("bchk,bkhq->bchq")];
            tensor<fp16, [1, 64, 1, 375]> var_11476_cast_fp16 = einsum(equation = var_11476_equation_0, values = (var_11188_cast_fp16, var_11427_cast_fp16))[name = tensor<string, []>("op_11476_cast_fp16")];
            tensor<string, []> var_11478_equation_0 = const()[name = tensor<string, []>("op_11478_equation_0"), val = tensor<string, []>("bchk,bkhq->bchq")];
            tensor<fp16, [1, 64, 1, 375]> var_11478_cast_fp16 = einsum(equation = var_11478_equation_0, values = (var_11188_cast_fp16, var_11428_cast_fp16))[name = tensor<string, []>("op_11478_cast_fp16")];
            tensor<string, []> var_11480_equation_0 = const()[name = tensor<string, []>("op_11480_equation_0"), val = tensor<string, []>("bchk,bkhq->bchq")];
            tensor<fp16, [1, 64, 1, 375]> var_11480_cast_fp16 = einsum(equation = var_11480_equation_0, values = (var_11188_cast_fp16, var_11429_cast_fp16))[name = tensor<string, []>("op_11480_cast_fp16")];
            tensor<string, []> var_11482_equation_0 = const()[name = tensor<string, []>("op_11482_equation_0"), val = tensor<string, []>("bchk,bkhq->bchq")];
            tensor<fp16, [1, 64, 1, 375]> var_11482_cast_fp16 = einsum(equation = var_11482_equation_0, values = (var_11188_cast_fp16, var_11430_cast_fp16))[name = tensor<string, []>("op_11482_cast_fp16")];
            tensor<string, []> var_11484_equation_0 = const()[name = tensor<string, []>("op_11484_equation_0"), val = tensor<string, []>("bchk,bkhq->bchq")];
            tensor<fp16, [1, 64, 1, 375]> var_11484_cast_fp16 = einsum(equation = var_11484_equation_0, values = (var_11192_cast_fp16, var_11431_cast_fp16))[name = tensor<string, []>("op_11484_cast_fp16")];
            tensor<string, []> var_11486_equation_0 = const()[name = tensor<string, []>("op_11486_equation_0"), val = tensor<string, []>("bchk,bkhq->bchq")];
            tensor<fp16, [1, 64, 1, 375]> var_11486_cast_fp16 = einsum(equation = var_11486_equation_0, values = (var_11192_cast_fp16, var_11432_cast_fp16))[name = tensor<string, []>("op_11486_cast_fp16")];
            tensor<string, []> var_11488_equation_0 = const()[name = tensor<string, []>("op_11488_equation_0"), val = tensor<string, []>("bchk,bkhq->bchq")];
            tensor<fp16, [1, 64, 1, 375]> var_11488_cast_fp16 = einsum(equation = var_11488_equation_0, values = (var_11192_cast_fp16, var_11433_cast_fp16))[name = tensor<string, []>("op_11488_cast_fp16")];
            tensor<string, []> var_11490_equation_0 = const()[name = tensor<string, []>("op_11490_equation_0"), val = tensor<string, []>("bchk,bkhq->bchq")];
            tensor<fp16, [1, 64, 1, 375]> var_11490_cast_fp16 = einsum(equation = var_11490_equation_0, values = (var_11192_cast_fp16, var_11434_cast_fp16))[name = tensor<string, []>("op_11490_cast_fp16")];
            tensor<string, []> var_11492_equation_0 = const()[name = tensor<string, []>("op_11492_equation_0"), val = tensor<string, []>("bchk,bkhq->bchq")];
            tensor<fp16, [1, 64, 1, 375]> var_11492_cast_fp16 = einsum(equation = var_11492_equation_0, values = (var_11196_cast_fp16, var_11435_cast_fp16))[name = tensor<string, []>("op_11492_cast_fp16")];
            tensor<string, []> var_11494_equation_0 = const()[name = tensor<string, []>("op_11494_equation_0"), val = tensor<string, []>("bchk,bkhq->bchq")];
            tensor<fp16, [1, 64, 1, 375]> var_11494_cast_fp16 = einsum(equation = var_11494_equation_0, values = (var_11196_cast_fp16, var_11436_cast_fp16))[name = tensor<string, []>("op_11494_cast_fp16")];
            tensor<string, []> var_11496_equation_0 = const()[name = tensor<string, []>("op_11496_equation_0"), val = tensor<string, []>("bchk,bkhq->bchq")];
            tensor<fp16, [1, 64, 1, 375]> var_11496_cast_fp16 = einsum(equation = var_11496_equation_0, values = (var_11196_cast_fp16, var_11437_cast_fp16))[name = tensor<string, []>("op_11496_cast_fp16")];
            tensor<string, []> var_11498_equation_0 = const()[name = tensor<string, []>("op_11498_equation_0"), val = tensor<string, []>("bchk,bkhq->bchq")];
            tensor<fp16, [1, 64, 1, 375]> var_11498_cast_fp16 = einsum(equation = var_11498_equation_0, values = (var_11196_cast_fp16, var_11438_cast_fp16))[name = tensor<string, []>("op_11498_cast_fp16")];
            tensor<string, []> var_11500_equation_0 = const()[name = tensor<string, []>("op_11500_equation_0"), val = tensor<string, []>("bchk,bkhq->bchq")];
            tensor<fp16, [1, 64, 1, 375]> var_11500_cast_fp16 = einsum(equation = var_11500_equation_0, values = (var_11200_cast_fp16, var_11439_cast_fp16))[name = tensor<string, []>("op_11500_cast_fp16")];
            tensor<string, []> var_11502_equation_0 = const()[name = tensor<string, []>("op_11502_equation_0"), val = tensor<string, []>("bchk,bkhq->bchq")];
            tensor<fp16, [1, 64, 1, 375]> var_11502_cast_fp16 = einsum(equation = var_11502_equation_0, values = (var_11200_cast_fp16, var_11440_cast_fp16))[name = tensor<string, []>("op_11502_cast_fp16")];
            tensor<string, []> var_11504_equation_0 = const()[name = tensor<string, []>("op_11504_equation_0"), val = tensor<string, []>("bchk,bkhq->bchq")];
            tensor<fp16, [1, 64, 1, 375]> var_11504_cast_fp16 = einsum(equation = var_11504_equation_0, values = (var_11200_cast_fp16, var_11441_cast_fp16))[name = tensor<string, []>("op_11504_cast_fp16")];
            tensor<string, []> var_11506_equation_0 = const()[name = tensor<string, []>("op_11506_equation_0"), val = tensor<string, []>("bchk,bkhq->bchq")];
            tensor<fp16, [1, 64, 1, 375]> var_11506_cast_fp16 = einsum(equation = var_11506_equation_0, values = (var_11200_cast_fp16, var_11442_cast_fp16))[name = tensor<string, []>("op_11506_cast_fp16")];
            tensor<string, []> var_11508_equation_0 = const()[name = tensor<string, []>("op_11508_equation_0"), val = tensor<string, []>("bchk,bkhq->bchq")];
            tensor<fp16, [1, 64, 1, 375]> var_11508_cast_fp16 = einsum(equation = var_11508_equation_0, values = (var_11204_cast_fp16, var_11443_cast_fp16))[name = tensor<string, []>("op_11508_cast_fp16")];
            tensor<string, []> var_11510_equation_0 = const()[name = tensor<string, []>("op_11510_equation_0"), val = tensor<string, []>("bchk,bkhq->bchq")];
            tensor<fp16, [1, 64, 1, 375]> var_11510_cast_fp16 = einsum(equation = var_11510_equation_0, values = (var_11204_cast_fp16, var_11444_cast_fp16))[name = tensor<string, []>("op_11510_cast_fp16")];
            tensor<string, []> var_11512_equation_0 = const()[name = tensor<string, []>("op_11512_equation_0"), val = tensor<string, []>("bchk,bkhq->bchq")];
            tensor<fp16, [1, 64, 1, 375]> var_11512_cast_fp16 = einsum(equation = var_11512_equation_0, values = (var_11204_cast_fp16, var_11445_cast_fp16))[name = tensor<string, []>("op_11512_cast_fp16")];
            tensor<string, []> var_11514_equation_0 = const()[name = tensor<string, []>("op_11514_equation_0"), val = tensor<string, []>("bchk,bkhq->bchq")];
            tensor<fp16, [1, 64, 1, 375]> var_11514_cast_fp16 = einsum(equation = var_11514_equation_0, values = (var_11204_cast_fp16, var_11446_cast_fp16))[name = tensor<string, []>("op_11514_cast_fp16")];
            tensor<string, []> var_11516_equation_0 = const()[name = tensor<string, []>("op_11516_equation_0"), val = tensor<string, []>("bchk,bkhq->bchq")];
            tensor<fp16, [1, 64, 1, 375]> var_11516_cast_fp16 = einsum(equation = var_11516_equation_0, values = (var_11208_cast_fp16, var_11447_cast_fp16))[name = tensor<string, []>("op_11516_cast_fp16")];
            tensor<string, []> var_11518_equation_0 = const()[name = tensor<string, []>("op_11518_equation_0"), val = tensor<string, []>("bchk,bkhq->bchq")];
            tensor<fp16, [1, 64, 1, 375]> var_11518_cast_fp16 = einsum(equation = var_11518_equation_0, values = (var_11208_cast_fp16, var_11448_cast_fp16))[name = tensor<string, []>("op_11518_cast_fp16")];
            tensor<string, []> var_11520_equation_0 = const()[name = tensor<string, []>("op_11520_equation_0"), val = tensor<string, []>("bchk,bkhq->bchq")];
            tensor<fp16, [1, 64, 1, 375]> var_11520_cast_fp16 = einsum(equation = var_11520_equation_0, values = (var_11208_cast_fp16, var_11449_cast_fp16))[name = tensor<string, []>("op_11520_cast_fp16")];
            tensor<string, []> var_11522_equation_0 = const()[name = tensor<string, []>("op_11522_equation_0"), val = tensor<string, []>("bchk,bkhq->bchq")];
            tensor<fp16, [1, 64, 1, 375]> var_11522_cast_fp16 = einsum(equation = var_11522_equation_0, values = (var_11208_cast_fp16, var_11450_cast_fp16))[name = tensor<string, []>("op_11522_cast_fp16")];
            tensor<string, []> var_11524_equation_0 = const()[name = tensor<string, []>("op_11524_equation_0"), val = tensor<string, []>("bchk,bkhq->bchq")];
            tensor<fp16, [1, 64, 1, 375]> var_11524_cast_fp16 = einsum(equation = var_11524_equation_0, values = (var_11212_cast_fp16, var_11451_cast_fp16))[name = tensor<string, []>("op_11524_cast_fp16")];
            tensor<string, []> var_11526_equation_0 = const()[name = tensor<string, []>("op_11526_equation_0"), val = tensor<string, []>("bchk,bkhq->bchq")];
            tensor<fp16, [1, 64, 1, 375]> var_11526_cast_fp16 = einsum(equation = var_11526_equation_0, values = (var_11212_cast_fp16, var_11452_cast_fp16))[name = tensor<string, []>("op_11526_cast_fp16")];
            tensor<string, []> var_11528_equation_0 = const()[name = tensor<string, []>("op_11528_equation_0"), val = tensor<string, []>("bchk,bkhq->bchq")];
            tensor<fp16, [1, 64, 1, 375]> var_11528_cast_fp16 = einsum(equation = var_11528_equation_0, values = (var_11212_cast_fp16, var_11453_cast_fp16))[name = tensor<string, []>("op_11528_cast_fp16")];
            tensor<string, []> var_11530_equation_0 = const()[name = tensor<string, []>("op_11530_equation_0"), val = tensor<string, []>("bchk,bkhq->bchq")];
            tensor<fp16, [1, 64, 1, 375]> var_11530_cast_fp16 = einsum(equation = var_11530_equation_0, values = (var_11212_cast_fp16, var_11454_cast_fp16))[name = tensor<string, []>("op_11530_cast_fp16")];
            tensor<string, []> var_11532_equation_0 = const()[name = tensor<string, []>("op_11532_equation_0"), val = tensor<string, []>("bchk,bkhq->bchq")];
            tensor<fp16, [1, 64, 1, 375]> var_11532_cast_fp16 = einsum(equation = var_11532_equation_0, values = (var_11216_cast_fp16, var_11455_cast_fp16))[name = tensor<string, []>("op_11532_cast_fp16")];
            tensor<string, []> var_11534_equation_0 = const()[name = tensor<string, []>("op_11534_equation_0"), val = tensor<string, []>("bchk,bkhq->bchq")];
            tensor<fp16, [1, 64, 1, 375]> var_11534_cast_fp16 = einsum(equation = var_11534_equation_0, values = (var_11216_cast_fp16, var_11456_cast_fp16))[name = tensor<string, []>("op_11534_cast_fp16")];
            tensor<string, []> var_11536_equation_0 = const()[name = tensor<string, []>("op_11536_equation_0"), val = tensor<string, []>("bchk,bkhq->bchq")];
            tensor<fp16, [1, 64, 1, 375]> var_11536_cast_fp16 = einsum(equation = var_11536_equation_0, values = (var_11216_cast_fp16, var_11457_cast_fp16))[name = tensor<string, []>("op_11536_cast_fp16")];
            tensor<string, []> var_11538_equation_0 = const()[name = tensor<string, []>("op_11538_equation_0"), val = tensor<string, []>("bchk,bkhq->bchq")];
            tensor<fp16, [1, 64, 1, 375]> var_11538_cast_fp16 = einsum(equation = var_11538_equation_0, values = (var_11216_cast_fp16, var_11458_cast_fp16))[name = tensor<string, []>("op_11538_cast_fp16")];
            tensor<string, []> var_11540_equation_0 = const()[name = tensor<string, []>("op_11540_equation_0"), val = tensor<string, []>("bchk,bkhq->bchq")];
            tensor<fp16, [1, 64, 1, 375]> var_11540_cast_fp16 = einsum(equation = var_11540_equation_0, values = (var_11220_cast_fp16, var_11459_cast_fp16))[name = tensor<string, []>("op_11540_cast_fp16")];
            tensor<string, []> var_11542_equation_0 = const()[name = tensor<string, []>("op_11542_equation_0"), val = tensor<string, []>("bchk,bkhq->bchq")];
            tensor<fp16, [1, 64, 1, 375]> var_11542_cast_fp16 = einsum(equation = var_11542_equation_0, values = (var_11220_cast_fp16, var_11460_cast_fp16))[name = tensor<string, []>("op_11542_cast_fp16")];
            tensor<string, []> var_11544_equation_0 = const()[name = tensor<string, []>("op_11544_equation_0"), val = tensor<string, []>("bchk,bkhq->bchq")];
            tensor<fp16, [1, 64, 1, 375]> var_11544_cast_fp16 = einsum(equation = var_11544_equation_0, values = (var_11220_cast_fp16, var_11461_cast_fp16))[name = tensor<string, []>("op_11544_cast_fp16")];
            tensor<string, []> var_11546_equation_0 = const()[name = tensor<string, []>("op_11546_equation_0"), val = tensor<string, []>("bchk,bkhq->bchq")];
            tensor<fp16, [1, 64, 1, 375]> var_11546_cast_fp16 = einsum(equation = var_11546_equation_0, values = (var_11220_cast_fp16, var_11462_cast_fp16))[name = tensor<string, []>("op_11546_cast_fp16")];
            tensor<string, []> var_11548_equation_0 = const()[name = tensor<string, []>("op_11548_equation_0"), val = tensor<string, []>("bchk,bkhq->bchq")];
            tensor<fp16, [1, 64, 1, 375]> var_11548_cast_fp16 = einsum(equation = var_11548_equation_0, values = (var_11224_cast_fp16, var_11463_cast_fp16))[name = tensor<string, []>("op_11548_cast_fp16")];
            tensor<string, []> var_11550_equation_0 = const()[name = tensor<string, []>("op_11550_equation_0"), val = tensor<string, []>("bchk,bkhq->bchq")];
            tensor<fp16, [1, 64, 1, 375]> var_11550_cast_fp16 = einsum(equation = var_11550_equation_0, values = (var_11224_cast_fp16, var_11464_cast_fp16))[name = tensor<string, []>("op_11550_cast_fp16")];
            tensor<string, []> var_11552_equation_0 = const()[name = tensor<string, []>("op_11552_equation_0"), val = tensor<string, []>("bchk,bkhq->bchq")];
            tensor<fp16, [1, 64, 1, 375]> var_11552_cast_fp16 = einsum(equation = var_11552_equation_0, values = (var_11224_cast_fp16, var_11465_cast_fp16))[name = tensor<string, []>("op_11552_cast_fp16")];
            tensor<string, []> var_11554_equation_0 = const()[name = tensor<string, []>("op_11554_equation_0"), val = tensor<string, []>("bchk,bkhq->bchq")];
            tensor<fp16, [1, 64, 1, 375]> var_11554_cast_fp16 = einsum(equation = var_11554_equation_0, values = (var_11224_cast_fp16, var_11466_cast_fp16))[name = tensor<string, []>("op_11554_cast_fp16")];
            tensor<string, []> var_11556_equation_0 = const()[name = tensor<string, []>("op_11556_equation_0"), val = tensor<string, []>("bchk,bkhq->bchq")];
            tensor<fp16, [1, 64, 1, 375]> var_11556_cast_fp16 = einsum(equation = var_11556_equation_0, values = (var_11228_cast_fp16, var_11467_cast_fp16))[name = tensor<string, []>("op_11556_cast_fp16")];
            tensor<string, []> var_11558_equation_0 = const()[name = tensor<string, []>("op_11558_equation_0"), val = tensor<string, []>("bchk,bkhq->bchq")];
            tensor<fp16, [1, 64, 1, 375]> var_11558_cast_fp16 = einsum(equation = var_11558_equation_0, values = (var_11228_cast_fp16, var_11468_cast_fp16))[name = tensor<string, []>("op_11558_cast_fp16")];
            tensor<string, []> var_11560_equation_0 = const()[name = tensor<string, []>("op_11560_equation_0"), val = tensor<string, []>("bchk,bkhq->bchq")];
            tensor<fp16, [1, 64, 1, 375]> var_11560_cast_fp16 = einsum(equation = var_11560_equation_0, values = (var_11228_cast_fp16, var_11469_cast_fp16))[name = tensor<string, []>("op_11560_cast_fp16")];
            tensor<string, []> var_11562_equation_0 = const()[name = tensor<string, []>("op_11562_equation_0"), val = tensor<string, []>("bchk,bkhq->bchq")];
            tensor<fp16, [1, 64, 1, 375]> var_11562_cast_fp16 = einsum(equation = var_11562_equation_0, values = (var_11228_cast_fp16, var_11470_cast_fp16))[name = tensor<string, []>("op_11562_cast_fp16")];
            tensor<string, []> var_11564_equation_0 = const()[name = tensor<string, []>("op_11564_equation_0"), val = tensor<string, []>("bchk,bkhq->bchq")];
            tensor<fp16, [1, 64, 1, 375]> var_11564_cast_fp16 = einsum(equation = var_11564_equation_0, values = (var_11232_cast_fp16, var_11471_cast_fp16))[name = tensor<string, []>("op_11564_cast_fp16")];
            tensor<string, []> var_11566_equation_0 = const()[name = tensor<string, []>("op_11566_equation_0"), val = tensor<string, []>("bchk,bkhq->bchq")];
            tensor<fp16, [1, 64, 1, 375]> var_11566_cast_fp16 = einsum(equation = var_11566_equation_0, values = (var_11232_cast_fp16, var_11472_cast_fp16))[name = tensor<string, []>("op_11566_cast_fp16")];
            tensor<string, []> var_11568_equation_0 = const()[name = tensor<string, []>("op_11568_equation_0"), val = tensor<string, []>("bchk,bkhq->bchq")];
            tensor<fp16, [1, 64, 1, 375]> var_11568_cast_fp16 = einsum(equation = var_11568_equation_0, values = (var_11232_cast_fp16, var_11473_cast_fp16))[name = tensor<string, []>("op_11568_cast_fp16")];
            tensor<string, []> var_11570_equation_0 = const()[name = tensor<string, []>("op_11570_equation_0"), val = tensor<string, []>("bchk,bkhq->bchq")];
            tensor<fp16, [1, 64, 1, 375]> var_11570_cast_fp16 = einsum(equation = var_11570_equation_0, values = (var_11232_cast_fp16, var_11474_cast_fp16))[name = tensor<string, []>("op_11570_cast_fp16")];
            tensor<bool, []> var_11572_interleave_0 = const()[name = tensor<string, []>("op_11572_interleave_0"), val = tensor<bool, []>(false)];
            tensor<fp16, [1, 64, 1, 1500]> var_11572_cast_fp16 = concat(axis = var_10683, interleave = var_11572_interleave_0, values = (var_11476_cast_fp16, var_11478_cast_fp16, var_11480_cast_fp16, var_11482_cast_fp16))[name = tensor<string, []>("op_11572_cast_fp16")];
            tensor<bool, []> var_11574_interleave_0 = const()[name = tensor<string, []>("op_11574_interleave_0"), val = tensor<bool, []>(false)];
            tensor<fp16, [1, 64, 1, 1500]> var_11574_cast_fp16 = concat(axis = var_10683, interleave = var_11574_interleave_0, values = (var_11484_cast_fp16, var_11486_cast_fp16, var_11488_cast_fp16, var_11490_cast_fp16))[name = tensor<string, []>("op_11574_cast_fp16")];
            tensor<bool, []> var_11576_interleave_0 = const()[name = tensor<string, []>("op_11576_interleave_0"), val = tensor<bool, []>(false)];
            tensor<fp16, [1, 64, 1, 1500]> var_11576_cast_fp16 = concat(axis = var_10683, interleave = var_11576_interleave_0, values = (var_11492_cast_fp16, var_11494_cast_fp16, var_11496_cast_fp16, var_11498_cast_fp16))[name = tensor<string, []>("op_11576_cast_fp16")];
            tensor<bool, []> var_11578_interleave_0 = const()[name = tensor<string, []>("op_11578_interleave_0"), val = tensor<bool, []>(false)];
            tensor<fp16, [1, 64, 1, 1500]> var_11578_cast_fp16 = concat(axis = var_10683, interleave = var_11578_interleave_0, values = (var_11500_cast_fp16, var_11502_cast_fp16, var_11504_cast_fp16, var_11506_cast_fp16))[name = tensor<string, []>("op_11578_cast_fp16")];
            tensor<bool, []> var_11580_interleave_0 = const()[name = tensor<string, []>("op_11580_interleave_0"), val = tensor<bool, []>(false)];
            tensor<fp16, [1, 64, 1, 1500]> var_11580_cast_fp16 = concat(axis = var_10683, interleave = var_11580_interleave_0, values = (var_11508_cast_fp16, var_11510_cast_fp16, var_11512_cast_fp16, var_11514_cast_fp16))[name = tensor<string, []>("op_11580_cast_fp16")];
            tensor<bool, []> var_11582_interleave_0 = const()[name = tensor<string, []>("op_11582_interleave_0"), val = tensor<bool, []>(false)];
            tensor<fp16, [1, 64, 1, 1500]> var_11582_cast_fp16 = concat(axis = var_10683, interleave = var_11582_interleave_0, values = (var_11516_cast_fp16, var_11518_cast_fp16, var_11520_cast_fp16, var_11522_cast_fp16))[name = tensor<string, []>("op_11582_cast_fp16")];
            tensor<bool, []> var_11584_interleave_0 = const()[name = tensor<string, []>("op_11584_interleave_0"), val = tensor<bool, []>(false)];
            tensor<fp16, [1, 64, 1, 1500]> var_11584_cast_fp16 = concat(axis = var_10683, interleave = var_11584_interleave_0, values = (var_11524_cast_fp16, var_11526_cast_fp16, var_11528_cast_fp16, var_11530_cast_fp16))[name = tensor<string, []>("op_11584_cast_fp16")];
            tensor<bool, []> var_11586_interleave_0 = const()[name = tensor<string, []>("op_11586_interleave_0"), val = tensor<bool, []>(false)];
            tensor<fp16, [1, 64, 1, 1500]> var_11586_cast_fp16 = concat(axis = var_10683, interleave = var_11586_interleave_0, values = (var_11532_cast_fp16, var_11534_cast_fp16, var_11536_cast_fp16, var_11538_cast_fp16))[name = tensor<string, []>("op_11586_cast_fp16")];
            tensor<bool, []> var_11588_interleave_0 = const()[name = tensor<string, []>("op_11588_interleave_0"), val = tensor<bool, []>(false)];
            tensor<fp16, [1, 64, 1, 1500]> var_11588_cast_fp16 = concat(axis = var_10683, interleave = var_11588_interleave_0, values = (var_11540_cast_fp16, var_11542_cast_fp16, var_11544_cast_fp16, var_11546_cast_fp16))[name = tensor<string, []>("op_11588_cast_fp16")];
            tensor<bool, []> var_11590_interleave_0 = const()[name = tensor<string, []>("op_11590_interleave_0"), val = tensor<bool, []>(false)];
            tensor<fp16, [1, 64, 1, 1500]> var_11590_cast_fp16 = concat(axis = var_10683, interleave = var_11590_interleave_0, values = (var_11548_cast_fp16, var_11550_cast_fp16, var_11552_cast_fp16, var_11554_cast_fp16))[name = tensor<string, []>("op_11590_cast_fp16")];
            tensor<bool, []> var_11592_interleave_0 = const()[name = tensor<string, []>("op_11592_interleave_0"), val = tensor<bool, []>(false)];
            tensor<fp16, [1, 64, 1, 1500]> var_11592_cast_fp16 = concat(axis = var_10683, interleave = var_11592_interleave_0, values = (var_11556_cast_fp16, var_11558_cast_fp16, var_11560_cast_fp16, var_11562_cast_fp16))[name = tensor<string, []>("op_11592_cast_fp16")];
            tensor<bool, []> var_11594_interleave_0 = const()[name = tensor<string, []>("op_11594_interleave_0"), val = tensor<bool, []>(false)];
            tensor<fp16, [1, 64, 1, 1500]> var_11594_cast_fp16 = concat(axis = var_10683, interleave = var_11594_interleave_0, values = (var_11564_cast_fp16, var_11566_cast_fp16, var_11568_cast_fp16, var_11570_cast_fp16))[name = tensor<string, []>("op_11594_cast_fp16")];
            tensor<bool, []> input_89_interleave_0 = const()[name = tensor<string, []>("input_89_interleave_0"), val = tensor<bool, []>(false)];
            tensor<fp16, [1, 768, 1, 1500]> input_89_cast_fp16 = concat(axis = var_10700, interleave = input_89_interleave_0, values = (var_11572_cast_fp16, var_11574_cast_fp16, var_11576_cast_fp16, var_11578_cast_fp16, var_11580_cast_fp16, var_11582_cast_fp16, var_11584_cast_fp16, var_11586_cast_fp16, var_11588_cast_fp16, var_11590_cast_fp16, var_11592_cast_fp16, var_11594_cast_fp16))[name = tensor<string, []>("input_89_cast_fp16")];
            tensor<int32, [2]> var_11599 = const()[name = tensor<string, []>("op_11599"), val = tensor<int32, [2]>([1, 1])];
            tensor<int32, [2]> var_11601 = const()[name = tensor<string, []>("op_11601"), val = tensor<int32, [2]>([1, 1])];
            tensor<string, []> obj_pad_type_0 = const()[name = tensor<string, []>("obj_pad_type_0"), val = tensor<string, []>("custom")];
            tensor<int32, [4]> obj_pad_0 = const()[name = tensor<string, []>("obj_pad_0"), val = tensor<int32, [4]>([0, 0, 0, 0])];
            tensor<fp16, [768, 768, 1, 1]> layers_11_self_attn_o_proj_weight_to_fp16 = const()[name = tensor<string, []>("layers_11_self_attn_o_proj_weight_to_fp16"), val = tensor<fp16, [768, 768, 1, 1]>(BLOBFILE(path = tensor<string, []>("@model_path/weights/weight.bin"), offset = tensor<uint64, []>(165690624)))];
            tensor<fp16, [768]> layers_11_self_attn_o_proj_bias_to_fp16 = const()[name = tensor<string, []>("layers_11_self_attn_o_proj_bias_to_fp16"), val = tensor<fp16, [768]>(BLOBFILE(path = tensor<string, []>("@model_path/weights/weight.bin"), offset = tensor<uint64, []>(166870336)))];
            tensor<fp16, [1, 768, 1, 1500]> obj_cast_fp16 = conv(bias = layers_11_self_attn_o_proj_bias_to_fp16, dilations = var_11601, groups = var_10700, pad = obj_pad_0, pad_type = obj_pad_type_0, strides = var_11599, weight = layers_11_self_attn_o_proj_weight_to_fp16, x = input_89_cast_fp16)[name = tensor<string, []>("obj_cast_fp16")];
            tensor<fp16, [1, 768, 1, 1500]> inputs_47_cast_fp16 = add(x = inputs_45_cast_fp16, y = obj_cast_fp16)[name = tensor<string, []>("inputs_47_cast_fp16")];
            tensor<int32, [1]> var_11607 = const()[name = tensor<string, []>("op_11607"), val = tensor<int32, [1]>([1])];
            tensor<fp16, [1, 1, 1, 1500]> channels_mean_47_cast_fp16 = reduce_mean(axes = var_11607, keep_dims = var_10701, x = inputs_47_cast_fp16)[name = tensor<string, []>("channels_mean_47_cast_fp16")];
            tensor<fp16, [1, 768, 1, 1500]> zero_mean_47_cast_fp16 = sub(x = inputs_47_cast_fp16, y = channels_mean_47_cast_fp16)[name = tensor<string, []>("zero_mean_47_cast_fp16")];
            tensor<fp16, [1, 768, 1, 1500]> zero_mean_sq_47_cast_fp16 = mul(x = zero_mean_47_cast_fp16, y = zero_mean_47_cast_fp16)[name = tensor<string, []>("zero_mean_sq_47_cast_fp16")];
            tensor<int32, [1]> var_11611 = const()[name = tensor<string, []>("op_11611"), val = tensor<int32, [1]>([1])];
            tensor<fp16, [1, 1, 1, 1500]> var_11612_cast_fp16 = reduce_mean(axes = var_11611, keep_dims = var_10701, x = zero_mean_sq_47_cast_fp16)[name = tensor<string, []>("op_11612_cast_fp16")];
            tensor<fp16, []> var_11613_to_fp16 = const()[name = tensor<string, []>("op_11613_to_fp16"), val = tensor<fp16, []>(0x1.5p-17)];
            tensor<fp16, [1, 1, 1, 1500]> var_11614_cast_fp16 = add(x = var_11612_cast_fp16, y = var_11613_to_fp16)[name = tensor<string, []>("op_11614_cast_fp16")];
            tensor<fp16, []> denom_47_epsilon_0_to_fp16 = const()[name = tensor<string, []>("denom_47_epsilon_0_to_fp16"), val = tensor<fp16, []>(0x1p-24)];
            tensor<fp16, [1, 1, 1, 1500]> denom_47_cast_fp16 = rsqrt(epsilon = denom_47_epsilon_0_to_fp16, x = var_11614_cast_fp16)[name = tensor<string, []>("denom_47_cast_fp16")];
            tensor<fp16, [1, 768, 1, 1500]> out_47_cast_fp16 = mul(x = zero_mean_47_cast_fp16, y = denom_47_cast_fp16)[name = tensor<string, []>("out_47_cast_fp16")];
            tensor<fp16, [768]> input_91_gamma_0_to_fp16 = const()[name = tensor<string, []>("input_91_gamma_0_to_fp16"), val = tensor<fp16, [768]>(BLOBFILE(path = tensor<string, []>("@model_path/weights/weight.bin"), offset = tensor<uint64, []>(166871936)))];
            tensor<fp16, [768]> input_91_beta_0_to_fp16 = const()[name = tensor<string, []>("input_91_beta_0_to_fp16"), val = tensor<fp16, [768]>(BLOBFILE(path = tensor<string, []>("@model_path/weights/weight.bin"), offset = tensor<uint64, []>(166873536)))];
            tensor<fp16, []> input_91_epsilon_0_to_fp16 = const()[name = tensor<string, []>("input_91_epsilon_0_to_fp16"), val = tensor<fp16, []>(0x1.5p-17)];
            tensor<fp16, [1, 768, 1, 1500]> input_91_cast_fp16 = batch_norm(beta = input_91_beta_0_to_fp16, epsilon = input_91_epsilon_0_to_fp16, gamma = input_91_gamma_0_to_fp16, mean = obj_1_mean_0_to_fp16, variance = obj_1_variance_0_to_fp16, x = out_47_cast_fp16)[name = tensor<string, []>("input_91_cast_fp16")];
            tensor<int32, [2]> var_11625 = const()[name = tensor<string, []>("op_11625"), val = tensor<int32, [2]>([1, 1])];
            tensor<int32, [2]> var_11627 = const()[name = tensor<string, []>("op_11627"), val = tensor<int32, [2]>([1, 1])];
            tensor<string, []> input_93_pad_type_0 = const()[name = tensor<string, []>("input_93_pad_type_0"), val = tensor<string, []>("custom")];
            tensor<int32, [4]> input_93_pad_0 = const()[name = tensor<string, []>("input_93_pad_0"), val = tensor<int32, [4]>([0, 0, 0, 0])];
            tensor<fp16, [3072, 768, 1, 1]> layers_11_fc1_weight_to_fp16 = const()[name = tensor<string, []>("layers_11_fc1_weight_to_fp16"), val = tensor<fp16, [3072, 768, 1, 1]>(BLOBFILE(path = tensor<string, []>("@model_path/weights/weight.bin"), offset = tensor<uint64, []>(166875136)))];
            tensor<fp16, [3072]> layers_11_fc1_bias_to_fp16 = const()[name = tensor<string, []>("layers_11_fc1_bias_to_fp16"), val = tensor<fp16, [3072]>(BLOBFILE(path = tensor<string, []>("@model_path/weights/weight.bin"), offset = tensor<uint64, []>(171593792)))];
            tensor<fp16, [1, 3072, 1, 1500]> input_93_cast_fp16 = conv(bias = layers_11_fc1_bias_to_fp16, dilations = var_11627, groups = var_10700, pad = input_93_pad_0, pad_type = input_93_pad_type_0, strides = var_11625, weight = layers_11_fc1_weight_to_fp16, x = input_91_cast_fp16)[name = tensor<string, []>("input_93_cast_fp16")];
            tensor<string, []> input_mode_0 = const()[name = tensor<string, []>("input_mode_0"), val = tensor<string, []>("EXACT")];
            tensor<fp16, [1, 3072, 1, 1500]> input_cast_fp16 = gelu(mode = input_mode_0, x = input_93_cast_fp16)[name = tensor<string, []>("input_cast_fp16")];
            tensor<int32, [2]> var_11633 = const()[name = tensor<string, []>("op_11633"), val = tensor<int32, [2]>([1, 1])];
            tensor<int32, [2]> var_11635 = const()[name = tensor<string, []>("op_11635"), val = tensor<int32, [2]>([1, 1])];
            tensor<string, []> hidden_states_pad_type_0 = const()[name = tensor<string, []>("hidden_states_pad_type_0"), val = tensor<string, []>("custom")];
            tensor<int32, [4]> hidden_states_pad_0 = const()[name = tensor<string, []>("hidden_states_pad_0"), val = tensor<int32, [4]>([0, 0, 0, 0])];
            tensor<fp16, [768, 3072, 1, 1]> layers_11_fc2_weight_to_fp16 = const()[name = tensor<string, []>("layers_11_fc2_weight_to_fp16"), val = tensor<fp16, [768, 3072, 1, 1]>(BLOBFILE(path = tensor<string, []>("@model_path/weights/weight.bin"), offset = tensor<uint64, []>(171600000)))];
            tensor<fp16, [768]> layers_11_fc2_bias_to_fp16 = const()[name = tensor<string, []>("layers_11_fc2_bias_to_fp16"), val = tensor<fp16, [768]>(BLOBFILE(path = tensor<string, []>("@model_path/weights/weight.bin"), offset = tensor<uint64, []>(176318656)))];
            tensor<fp16, [1, 768, 1, 1500]> hidden_states_cast_fp16 = conv(bias = layers_11_fc2_bias_to_fp16, dilations = var_11635, groups = var_10700, pad = hidden_states_pad_0, pad_type = hidden_states_pad_type_0, strides = var_11633, weight = layers_11_fc2_weight_to_fp16, x = input_cast_fp16)[name = tensor<string, []>("hidden_states_cast_fp16")];
            tensor<fp16, [1, 768, 1, 1500]> inputs_cast_fp16 = add(x = inputs_47_cast_fp16, y = hidden_states_cast_fp16)[name = tensor<string, []>("inputs_cast_fp16")];
            tensor<bool, []> var_11641 = const()[name = tensor<string, []>("op_11641"), val = tensor<bool, []>(true)];
            tensor<int32, [1]> var_11645 = const()[name = tensor<string, []>("op_11645"), val = tensor<int32, [1]>([1])];
            tensor<fp16, [1, 1, 1, 1500]> channels_mean_cast_fp16 = reduce_mean(axes = var_11645, keep_dims = var_11641, x = inputs_cast_fp16)[name = tensor<string, []>("channels_mean_cast_fp16")];
            tensor<fp16, [1, 768, 1, 1500]> zero_mean_cast_fp16 = sub(x = inputs_cast_fp16, y = channels_mean_cast_fp16)[name = tensor<string, []>("zero_mean_cast_fp16")];
            tensor<fp16, [1, 768, 1, 1500]> zero_mean_sq_cast_fp16 = mul(x = zero_mean_cast_fp16, y = zero_mean_cast_fp16)[name = tensor<string, []>("zero_mean_sq_cast_fp16")];
            tensor<int32, [1]> var_11649 = const()[name = tensor<string, []>("op_11649"), val = tensor<int32, [1]>([1])];
            tensor<fp16, [1, 1, 1, 1500]> var_11650_cast_fp16 = reduce_mean(axes = var_11649, keep_dims = var_11641, x = zero_mean_sq_cast_fp16)[name = tensor<string, []>("op_11650_cast_fp16")];
            tensor<fp16, []> var_11651_to_fp16 = const()[name = tensor<string, []>("op_11651_to_fp16"), val = tensor<fp16, []>(0x1.5p-17)];
            tensor<fp16, [1, 1, 1, 1500]> var_11652_cast_fp16 = add(x = var_11650_cast_fp16, y = var_11651_to_fp16)[name = tensor<string, []>("op_11652_cast_fp16")];
            tensor<fp16, []> denom_epsilon_0_to_fp16 = const()[name = tensor<string, []>("denom_epsilon_0_to_fp16"), val = tensor<fp16, []>(0x1p-24)];
            tensor<fp16, [1, 1, 1, 1500]> denom_cast_fp16 = rsqrt(epsilon = denom_epsilon_0_to_fp16, x = var_11652_cast_fp16)[name = tensor<string, []>("denom_cast_fp16")];
            tensor<fp16, [1, 768, 1, 1500]> out_cast_fp16 = mul(x = zero_mean_cast_fp16, y = denom_cast_fp16)[name = tensor<string, []>("out_cast_fp16")];
            tensor<fp16, [768]> encoder_output_embeds_type_fp32_gamma_0_to_fp16 = const()[name = tensor<string, []>("encoder_output_embeds_type_fp32_gamma_0_to_fp16"), val = tensor<fp16, [768]>(BLOBFILE(path = tensor<string, []>("@model_path/weights/weight.bin"), offset = tensor<uint64, []>(176320256)))];
            tensor<fp16, [768]> encoder_output_embeds_type_fp32_beta_0_to_fp16 = const()[name = tensor<string, []>("encoder_output_embeds_type_fp32_beta_0_to_fp16"), val = tensor<fp16, [768]>(BLOBFILE(path = tensor<string, []>("@model_path/weights/weight.bin"), offset = tensor<uint64, []>(176321856)))];
            tensor<fp16, []> encoder_output_embeds_type_fp32_epsilon_0_to_fp16 = const()[name = tensor<string, []>("encoder_output_embeds_type_fp32_epsilon_0_to_fp16"), val = tensor<fp16, []>(0x1.5p-17)];
            tensor<fp16, [1, 768, 1, 1500]> encoder_output_embeds = batch_norm(beta = encoder_output_embeds_type_fp32_beta_0_to_fp16, epsilon = encoder_output_embeds_type_fp32_epsilon_0_to_fp16, gamma = encoder_output_embeds_type_fp32_gamma_0_to_fp16, mean = obj_1_mean_0_to_fp16, variance = obj_1_variance_0_to_fp16, x = out_cast_fp16)[name = tensor<string, []>("encoder_output_embeds_type_fp32_cast_fp16")];
        } -> (encoder_output_embeds);
}